models/predictive_network_planning/best.pt (torch, 43818 bytes, 5 tensors)

net.0.weight f4 [128, 15]
0	0xbe0e2c5c	-0.1388411
1	0x3cc07020	0.023490965
2	0x3e1a862e	0.15090248
3	0xbd619dc0	-0.055082083
4	0xbe43c005	-0.19116218
5	0x3ead51f1	0.3385158
6	0xbe08aa91	-0.13346316
7	0x3cdb52aa	0.026772816
8	0xbe1fa989	-0.15592016
9	0x3e8a0c57	0.2696254
10	0x3da187b4	0.078872114
11	0xbe65241c	-0.22377056
12	0xbc801d9b	-0.015639117
13	0xbe929f07	-0.28636953
14	0xbe68b99b	-0.22727053
15	0x3e879521	0.26480964
16	0x3e52c4f0	0.20582938
17	0xbe00572e	-0.12533256
18	0x3e7429f7	0.23844133
19	0xbebb6830	-0.36602926
20	0xbd461ff8	-0.04837033
21	0xbd8b271b	-0.06794568
22	0xbe88368a	-0.2660411
23	0xbe938fd4	-0.2882067
24	0xbd45945d	-0.048237193
25	0xbdf509c9	-0.11964757
26	0xbd46d680	-0.048544407
27	0x3e1eae6b	0.15496223
28	0x3e4c7e2e	0.19970009
29	0xbe5ab173	-0.21356754
30	0x3e792f28	0.24334395
31	0xbdc46340	-0.09589243
32	0x3e483a72	0.19553545
33	0x3d8bf2f6	0.068334505
34	0x3e8adc1a	0.2712105
35	0xbe439627	-0.19100247
36	0x3e771071	0.24127366
37	0xbebf55bf	-0.37370107
38	0xbe447ca8	-0.19188178
39	0xbe01681e	-0.12637374
40	0xbebff2e1	-0.3748999
41	0x3ebd74bb	0.3700312
42	0x3e8b5c64	0.27218926
43	0xbde1462a	-0.10999711
44	0xbe7761d2	-0.24158409
45	0x3e6fb591	0.23409106
46	0xbc287b68	-0.010283329
47	0x3e7e8034	0.24853593
48	0xbdd230ec	-0.10263237
49	0x3d22b815	0.039726336
50	0xbda4449c	-0.08020899
51	0xbe733ee0	-0.23754454
52	0x3decfe9c	0.115720004
53	0x3e52d1f8	0.20587909
54	0xbea6fee6	-0.32616347
55	0x3e72b45f	0.23701619
56	0x3e25487f	0.16140936
57	0xbeaa93f4	-0.33316004
58	0x3d95b991	0.073107846
59	0xbd10ad69	-0.035321627
60	0x3c0be6bc	0.008538898
61	0x3d239280	0.039934635
62	0xbe4199e0	-0.18906355
63	0xbea6522f	-0.32484576
64	0x3d4ba90b	0.04972176
65	0x3e99a706	0.3001024
66	0x3cf06b20	0.029347956
67	0x3e04b77f	0.12960623
68	0x3e09088b	0.13382165
69	0x3df257eb	0.11833175
70	0xbdc437b8	-0.0958094
71	0x3e54edcd	0.20793839
72	0xbdb35009	-0.087555
73	0x3d9e4882	0.077286735
74	0x3e28d8fb	0.16489021
75	0x3e3c54dc	0.18391746
76	0x3ddbe361	0.107367285
77	0xbe1d3e9e	-0.15355918
78	0xbcd62341	-0.026139857
79	0xbe1f36cb	-0.15548246
80	0xbeae1afe	-0.34004968
81	0xbdff60e8	-0.12469655
82	0x3e8816c5	0.26579872
83	0xbe416b53	-0.18888597
84	0xbec87acd	-0.3915619
85	0xbe5ccbb3	-0.2156208
86	0xbe8d1892	-0.27557808
87	0xbe147d77	-0.14500986
88	0x3a553a73	0.0008134015
89	0x3e85863c	0.26078975
90	0xbda97b03	-0.08275416
91	0x3e6d3f69	0.2316872
92	0x3e1194bf	0.14216898
93	0x3e91d337	0.28481457
94	0x3e75a101	0.239872
95	0x3e888ea2	0.2667132
96	0xbe32a724	-0.17446572
97	0xbc9c872e	-0.019107427
98	0x3e4ed290	0.2019751
99	0x3d8fa5c5	0.0701404
100	0x3e199ea9	0.1500193
101	0xbeba3501	-0.36368564
102	0x3e68f29b	0.22748797
103	0xbea40433	-0.32034454
104	0x3e733e5f	0.23754261
105	0x3dfc5207	0.12320333
106	0x3e15d928	0.1463362
107	0x3e38003e	0.17968842
108	0xbd95a6ff	-0.073072426
109	0xbe83776c	-0.2567705
110	0x3e0254e1	0.12727691
111	0x3e1f0f8b	0.15533273
112	0x3e55a1f4	0.20862561
113	0xbea5c7c1	-0.32378963
114	0xbd9ca9c7	-0.0764957
115	0x3e878c45	0.26474205
116	0x3e083dc5	0.13304813
117	0xbe35f849	-0.17770495
118	0xbd5785c9	-0.05261782
119	0xbcde75a3	-0.027155703
120	0x3e97aaf5	0.29622617
121	0xbda3d490	-0.079995275
122	0x3ca72dbc	0.02040755
123	0xbddaa404	-0.10675815
124	0x3e3e0b8b	0.18559091
125	0x3dd372db	0.10324641
126	0x3cd47beb	0.025937995
127	0xbebac698	-0.3647964
128	0xbd128a93	-0.035776686
129	0xbed2b65e	-0.4115476
130	0x3d00df5a	0.031463005
131	0xbea34808	-0.31890893
132	0xbeaabdce	-0.33347934
133	0xbe6580c8	-0.22412407
134	0xbe63ca9a	-0.22245255
135	0x3d6eb8b8	0.05828163
136	0xbe616aa3	-0.22013335
137	0xbd40fdfa	-0.04711721
138	0x3d5be1b2	0.053682037
139	0xbd1d1657	-0.038351383
140	0xb89ce219	-7.480774e-05
141	0xbec85718	-0.39128947
142	0xbe820a61	-0.25398543
143	0xbd91f4a3	-0.07126739
144	0x3e6d8265	0.23194273
145	0x3e687478	0.2270068
146	0xbeb2020e	-0.34767193
147	0xbe9000be	-0.28125566
148	0xbe33c41e	-0.17555282
149	0x3d84f82f	0.0649265
150	0x3ea15dc8	0.31516862
151	0x3c274d4c	0.0102113
152	0x3d6b8f6e	0.057509832
153	0xbe315a12	-0.17319515
154	0xbe979167	-0.2960312
155	0x3e9ef97e	0.31049722
156	0x3e62b4cc	0.22139281
157	0xbe3899df	-0.18027447
158	0x3cd0616b	0.025437078
159	0xbe22c409	-0.15895094
160	0xbeb1e88a	-0.34747726
161	0x3dcc4c7d	0.099755265
162	0xbdb9a65e	-0.09064935
163	0x3da9ff41	0.08300639
164	0xbe5b4615	-0.21413453
165	0x3d5fde50	0.054655373
166	0x3d2d0e68	0.042250067
167	0x3e820951	0.25397733
168	0xbdfa22cd	-0.12213669
169	0xbe117fa7	-0.14208852
170	0x3e15c353	0.14625292
171	0x3dfdcb4b	0.12392291
172	0xbd22f876	-0.039787732
173	0x3e92b28a	0.2865184
174	0xbecbebe4	-0.39828408
175	0x3e6140a1	0.2199731
176	0xbe696df4	-0.2279585
177	0xbd7a9279	-0.061174843
178	0xbbfd06ac	-0.0077217426
179	0xbd667bd9	-0.056270454
180	0xbdd4de12	-0.10393919
181	0x3e3cbd93	0.18431692
182	0x3e953b72	0.29146916
183	0x3e5cf50b	0.21577851
184	0xbe098a8e	-0.1343176
185	0x3ea179cc	0.31538236
186	0x3dc67748	0.0969072
187	0xbd9b6f20	-0.07589555
188	0x3e109828	0.14120543
189	0xbdc64f20	-0.09683061
190	0xbd199016	-0.037490927
191	0x3e5d077e	0.2158489
192	0x3dd9d287	0.10635858
193	0x3d83e383	0.06439879
194	0x3e8cbc79	0.27487543
195	0xbea08aa8	-0.31355786
196	0x3db6455c	0.08899948
197	0xbea87461	-0.3290129
198	0x3de54c95	0.111962475
199	0xbcdc7457	-0.026910944
200	0xbdcacbcf	-0.09902155
201	0xbe40f578	-0.18843639
202	0xbead68d3	-0.33869037
203	0x3eb044ec	0.34427583
204	0x3e90daf1	0.2829204
205	0x3e6bc4e8	0.23024333
206	0xbe5b5786	-0.21420106
207	0xbeb9653b	-0.36210045
208	0x3d6ba9e9	0.057535086
209	0xbe47109f	-0.19439934
210	0xbea96ef6	-0.3309247
211	0xbd8e89c6	-0.06959872
212	0xbdaa5477	-0.08316892
213	0x3e65b9df	0.22434185
214	0x3e4920bb	0.19641392
215	0xbba9340f	-0.0051636766
216	0xbe861ab5	-0.2619225
217	0x3e8d12e9	0.2755349
218	0xbe7b6cf7	-0.24553286
219	0x3ce5b664	0.028041072
220	0xbeacb8d7	-0.33734772
221	0xbd9300f7	-0.071779184
222	0x3e4be2d0	0.19910741
223	0xbead5d5e	-0.33860296
224	0xbe544b6b	-0.20731895
225	0x3da5a5c4	0.08088258
226	0xbcac3f35	-0.021026233
227	0x3e89f914	0.26947844
228	0xbd186dd5	-0.03721412
229	0xbcd1d134	-0.025612451
230	0xbca6f682	-0.020381216
231	0xbdeda198	-0.11603087
232	0xbec0a029	-0.37622193
233	0x3e795c08	0.24351513
234	0xbe864770	-0.26226377
235	0xbdfa5d57	-0.122248344
236	0x3e4b35b1	0.198447
237	0xbe5fb6b6	-0.21847042
238	0xbe866d85	-0.26255432
239	0xbd4ef048	-0.05052212
240	0x3d675b50	0.056483567
241	0x3e888e52	0.26671082
242	0x3d33ebf4	0.043926194
243	0x3ded6182	0.11590864
244	0x3e870773	0.2637287
245	0xbe79bca2	-0.24388364
246	0xbe2edeb3	-0.1707714
247	0xbe085617	-0.1331409
248	0x3d5f0da1	0.054456357
249	0xbebace19	-0.36485365
250	0x3d5767e2	0.052589305
251	0x3eb02da7	0.3440983
252	0x3e229053	0.15875368
253	0x3e76913c	0.2407884
254	0x3e0b486a	0.13601843
255	0xbe9f6d37	-0.31138012

net.0.bias f4 [128]
0	0x3d13c273	0.036074113
1	0x3c54f2eb	0.012997369
2	0x3c52ed36	0.012873938
3	0x3ec753e3	0.38931188
4	0x3e7b2d39	0.2452897
5	0xbd614237	-0.054994788
6	0x3ea3def8	0.3200605
7	0x3e156793	0.14590292
8	0x3eb056b5	0.34441152
9	0x3eafe08a	0.34350997
10	0x3ec6fad6	0.38863248
11	0x3e0fefa7	0.14056264
12	0x3dcd5847	0.10026603
13	0x3e3efa74	0.18650228
14	0xbde8ff89	-0.113768645
15	0x3ea96d6f	0.33091304
16	0x3e36ef18	0.17864645
17	0x3b112fd1	0.0022153745
18	0x3e2db6d3	0.16964273
19	0x3e93c51a	0.28861314
20	0x3e462c6e	0.19352886
21	0x3ea58271	0.3232608
22	0x3e3327e9	0.17495693
23	0x3ece7708	0.4032519
24	0x3c664de1	0.014056654
25	0x3e848714	0.25884306
26	0x3e879841	0.26483348
27	0x3d562e16	0.052290045
28	0x3e963d9f	0.29343888
29	0x3e94890c	0.29010808
30	0x3e976d89	0.29575756
31	0x3ebc4216	0.3676917
32	0x3da3df53	0.0800158
33	0x3e306a15	0.17227967
34	0x3cd9600b	0.026535055
35	0x3e722b49	0.23649324
36	0x3d6590df	0.056046363
37	0x3e848f9c	0.25890815
38	0x3ea4eeca	0.32213432
39	0xbd6c41ec	-0.057680055
40	0x3eb33666	0.3500244
41	0xbd84a9da	-0.06477709
42	0xbdbe1dfd	-0.092830636
43	0x3ebcc065	0.36865535
44	0xbd4ced1a	-0.050030805
45	0x3dcc1f08	0.09966856
46	0x3eaea13b	0.34107384
47	0x3e20aea2	0.15691617
48	0x3e9a84d9	0.3017948
49	0x3e55aa20	0.20865679
50	0x3e8e1636	0.2775132
51	0x3e6c5abf	0.23081492
52	0x3ec4a686	0.38408297
53	0x3ec49e9e	0.38402265
54	0x3d95eb80	0.07320309
55	0xbc83e328	-0.016099527
56	0x3ca81929	0.02051981
57	0x3ec4bd59	0.3842571
58	0xbdb645c6	-0.08900027
59	0x3db73cf8	0.08947176
60	0xbd9cc2dd	-0.07654355
61	0x3eba3310	0.36367083
62	0xbd041363	-0.03224505
63	0x3d8b8d3f	0.0681405
64	0x3e3c0b80	0.18363762
65	0x3e5095b9	0.20369615
66	0x3ddbc12a	0.107302025
67	0x3ed45f44	0.41478932
68	0x3d48650d	0.048924495
69	0x3d5a5f2b	0.053313415
70	0xbb934f8d	-0.004495567
71	0x3e0820ba	0.13293734
72	0x3d3cc5df	0.046087142
73	0x3eaf042e	0.34182876
74	0xbc00d3c7	-0.007862992
75	0x3ed42997	0.4143798
76	0x3dc65240	0.09683657
77	0x3eafdf0c	0.3434986
78	0xbaa600b6	-0.0012665007
79	0x3ea14984	0.315014
80	0x3ddc8138	0.10766834
81	0x3cd94db3	0.026526308
82	0x3e919f01	0.28441623
83	0x3e3e3bc9	0.18577494
84	0x3eb49a3d	0.35273924
85	0xbd2e214c	-0.042512223
86	0x3e8337d8	0.25628543
87	0xbd49bfb9	-0.049255107
88	0xbd9c148c	-0.076211065
89	0x3e86da0c	0.26338232
90	0x3eadbc96	0.33932942
91	0xbced8d65	-0.028998086
92	0xbc618fc2	-0.013767185
93	0x3df93298	0.12167853
94	0x3e94919b	0.29017338
95	0x3df7c2bc	0.120976895
96	0xbd8b8ea6	-0.068143174
97	0x3e2083d0	0.15675282
98	0x3e96c913	0.29450282
99	0xbde6162f	-0.112347
100	0x3eb77f25	0.3583919
101	0xbcf3001f	-0.029663144
102	0x3d807c44	0.06273702
103	0x3e416629	0.18886627
104	0xbd8ef742	-0.069807544
105	0x3ec6b930	0.38813162
106	0x3eb222c6	0.34792155
107	0x3dd474ac	0.10373816
108	0x3e8666f7	0.2625043
109	0x3d4c3179	0.04985187
110	0x3cb97180	0.022637129
111	0xbd694dd3	-0.056958985
112	0x3e90dea5	0.28294864
113	0x3ea39580	0.31949997
114	0x3eb16428	0.34646726
115	0x3e5c7f8c	0.2153303
116	0x3e72fd3f	0.23729418
117	0xbc8a93bb	-0.016916147
118	0xbdf295d2	-0.11844982
119	0x3e4edc0a	0.20201126
120	0x3eac31bb	0.3363169
121	0x3e909928	0.2824185
122	0x3ebc78ac	0.36810815
123	0x3d9a3382	0.075293556
124	0x3ec35b7c	0.38155735
125	0x3ea8dd97	0.3298156
126	0x3c038846	0.008028096
127	0xbc1a33b6	-0.009411743

net.3.weight f4 [64, 128]
0	0x3cf3491c	0.029697947
1	0xbd04083e	-0.032234423
2	0xbbb2fbfd	-0.0054621683
3	0x3cc99167	0.024605466
4	0xbd30e7ff	-0.04319
5	0x3b23592e	0.0024924981
6	0xbc826c40	-0.015920758
7	0x3c3cf36c	0.011532646
8	0xbbe4a460	-0.006977603
9	0x3c5380da	0.012909139
10	0xbda8cc3f	-0.08242082
11	0xbdc40779	-0.09571738
12	0xbd61804e	-0.055054
13	0x3d29ba2c	0.041437313
14	0xbdc503f2	-0.09619893
15	0x3c8c8b90	0.017156392
16	0xbc1dff7f	-0.009643435
17	0x3ca21e4c	0.019789837
18	0xbd448113	-0.047974657
19	0x3c96707f	0.01836419
20	0xbd2b6523	-0.0418445
21	0x3d58c342	0.052920587
22	0x3c311d0e	0.01081015
23	0x3bcefb02	0.0063165436
24	0x3d5d6eaa	0.054060616
25	0x3c4ceae3	0.012507173
26	0x3d1f29cc	0.03885822
27	0xbd95b939	-0.07310719
28	0xbdda60ea	-0.10663016
29	0xbb76762b	-0.0037607055
30	0x3d822bf2	0.06356038
31	0xbd66fed9	-0.056395385
32	0x3d09b3e9	0.03361884
33	0x3bad50d6	0.0052891774
34	0xba467abf	-0.0007571391
35	0xbd8e7365	-0.069556035
36	0x3c2cba03	0.0105423955
37	0xbcbb7f5e	-0.022887882
38	0x3cd72f8a	0.026267786
39	0x3d0a6caa	0.033795036
40	0x3cce58b5	0.025188783
41	0xbc03f744	-0.008054558
42	0xbc5958e3	-0.013265821
43	0x3ce099e1	0.027417125
44	0x3c68b788	0.0142039135
45	0xbb2b71b7	-0.0026160309
46	0xbda11edb	-0.07867213
47	0xbda93623	-0.08262279
48	0xbd7b77f9	-0.06139371
49	0x3cf91ad0	0.030408293
50	0x3cc2ff15	0.023803273
51	0x3cef2a43	0.029194957
52	0x3ccd7e30	0.025084585
53	0x3d581237	0.052751746
54	0xbce05803	-0.027385717
55	0x3d00df8f	0.031463202
56	0x3d8094bd	0.062783696
57	0xbdc6db27	-0.09709769
58	0xbd321341	-0.043475393
59	0xbdbf7fe0	-0.09350562
60	0x3c4ae11e	0.012382774
61	0xbc2b352e	-0.010449691
62	0xbcb94b5d	-0.022618944
63	0x3d74e7dc	0.05979143
64	0xbd22ba51	-0.039728466
65	0xbdcd1fab	-0.10015806
66	0xbdb384ac	-0.087655395
67	0xbc4e50a5	-0.012592469
68	0x3b461c0d	0.0030229122
69	0x3d137c7f	0.0360074
70	0x3c9dc8cb	0.019260785
71	0xbccba591	-0.024859222
72	0xbdcef960	-0.10106158
73	0x3c99abc4	0.018758662
74	0x3d339538	0.043843478
75	0xbb7270e5	-0.003699356
76	0xbc844d9d	-0.01615029
77	0x3d0c04b4	0.034184173
78	0xbddb0f5d	-0.1069629
79	0x3c40ce99	0.011768007
80	0xbc8a4050	-0.01687637
81	0xbd7e3088	-0.062058
82	0xbdc2677c	-0.09492394
83	0x3bd43731	0.006476306
84	0xbcc74343	-0.024324065
85	0xbd3186a7	-0.043341305
86	0xbc1d895e	-0.00961527
87	0xbbb91cee	-0.0056492006
88	0xbd959fbe	-0.07305859
89	0xbdb29e00	-0.08721542
90	0xbdaf4a5a	-0.08559103
91	0x3d2b9a5e	0.041895263
92	0x3d807481	0.06272221
93	0x3d6bf5df	0.057607528
94	0xbdd069dc	-0.10176441
95	0x3ce72405	0.028215418
96	0xbd4891a4	-0.04896702
97	0x3b3dcbf6	0.0028960682
98	0x3d65728c	0.056017444
99	0xbd7ab54d	-0.06120806
100	0x3d3321bc	0.043733343
101	0xbc23e8d4	-0.010004241
102	0xbdc71454	-0.09720674
103	0xbdc65ecb	-0.09686049
104	0x3c89bedf	0.016814647
105	0x3d742a80	0.059610844
106	0x3b6b4747	0.003590064
107	0xbc52f239	-0.012875133
108	0x3d49dd61	0.04928339
109	0xbd2aaefc	-0.041670784
110	0xbdd45ede	-0.10369657
111	0x3cf6974d	0.030101443
112	0xbbf109d7	-0.0073559093
113	0x3ccd3bd0	0.025052935
114	0xbddb08dd	-0.1069505
115	0xbdc0ff86	-0.09423737
116	0x3d3006ff	0.042975422
117	0xbdd09d03	-0.101861976
118	0xbd8d3f35	-0.068968214
119	0x3d37fa4d	0.04491644
120	0xbdcff5b8	-0.10154289
121	0x3d0e1e00	0.03469658
122	0xba9b3e93	-0.001184421
123	0xbc7a96cb	-0.015294741
124	0xbd2dcae4	-0.04242982
125	0xbdc5b49b	-0.096535884
126	0x3c45e713	0.012079018
127	0xbdaaddee	-0.08343111
128	0x3d1cf141	0.038316015
129	0x3bc9e6fd	0.006161569
130	0xbda3f461	-0.08005596
131	0x3d564cf8	0.052319497
132	0x3d8306ef	0.06397807
133	0x3d024ab2	0.031809516
134	0x3cf7902f	0.03022012
135	0xbcb4274e	-0.021991398
136	0xbd090bf1	-0.033458654
137	0x3d48a37e	0.048984043
138	0xbdbb4f50	-0.09145987
139	0x3d813cbe	0.06310414
140	0x3cd3f5c9	0.025874035
141	0xbd456be1	-0.048198584
142	0xbb284cb2	-0.002568048
143	0x3d81f07f	0.06344699
144	0x3d5d4482	0.054020412
145	0xbdd00056	-0.10156314
146	0x3c8dfc3f	0.017332194
147	0x3d37d799	0.044883344
148	0xbc7660eb	-0.0150377555
149	0xbce1d779	-0.027568566
150	0x3d682304	0.05667402
151	0x3cff64ef	0.031176059
152	0xbdca7a03	-0.09886553
153	0x3ce3d358	0.027810737
154	0xbd78bc25	-0.060726304
155	0xbd3850a3	-0.044998776
156	0x3cfc3c77	0.03079055
157	0xbd70af0a	-0.05876068
158	0x3d585c96	0.05282267
159	0x3d21d2fb	0.039507847
160	0xbc84eebb	-0.016227117
161	0x3bfedb56	0.0077776117
162	0x3c79b300	0.015240431
163	0xbd828c63	-0.06374433
164	0x3c763228	0.015026607
165	0xbd04b5e6	-0.032400034
166	0xbbfb107f	-0.0076618786
167	0x3d36a147	0.0445874
168	0xbdcc4115	-0.09973351
169	0x3c35e8f2	0.011102902
170	0xbdb029d3	-0.08601727
171	0x3d3e0461	0.046390895
172	0x3d5d27d5	0.053993065
173	0x3ce98006	0.02850343
174	0x3d7faed1	0.062422577
175	0xbd202e54	-0.039106682
176	0xba7e1543	-0.00096924993
177	0xbdc3a97f	-0.09553813
178	0x3d46ce1f	0.048536416
179	0x3d5c287e	0.053749554
180	0xbd65d51c	-0.05611144
181	0xbc411afd	-0.01178622
182	0xbdad6252	-0.08466019
183	0xbdc7eb73	-0.09761705
184	0xbc2f5fb9	-0.010703974
185	0x3bd02958	0.006352585
186	0xbd70be76	-0.058775388
187	0xbdd39431	-0.10331
188	0xbd66f715	-0.05638798
189	0x3d3b91f7	0.0457935
190	0xbc39e0b8	-0.011345081
191	0xbc0df77a	-0.00866496
192	0xbdd80fad	-0.10549865
193	0xbca9083d	-0.020633811
194	0xbbe68aa4	-0.00703557
195	0x3d71d3b2	0.05903978
196	0xbd967e32	-0.073482886
197	0xbdba3551	-0.090922005
198	0xbdc41954	-0.095751435
199	0xbc5c7227	-0.01345495
200	0xbdcc4d39	-0.099756666
201	0xbd9bde1c	-0.076107234
202	0x3c5e520b	0.013569365
203	0xbd67c1ca	-0.056581296
204	0x3c02a641	0.007974208
205	0xbd9cfbc2	-0.076652065
206	0xbdd704ef	-0.10498988
207	0x3d7c322f	0.061571296
208	0x3ca9db28	0.020734385
209	0xbd8ff83c	-0.07029769
210	0x3d63ce80	0.055616856
211	0xbd6d4122	-0.057923444
212	0x3c6b3443	0.014355722
213	0x3d7264b2	0.05917806
214	0xbda49aeb	-0.08037361
215	0xbd8140b4	-0.06311169
216	0xbce0a812	-0.027423892
217	0x3d31ed87	0.043439414
218	0x3d5ed4d8	0.054402202
219	0x3d162cce	0.036663823
220	0xba0d9587	-0.00054010045
221	0xbd9e98a3	-0.07743957
222	0xbd20f755	-0.039298374
223	0xbdb4ddde	-0.0883138
224	0xbcc14ab5	-0.023595193
225	0xbd4d4f6b	-0.050124567
226	0xbd1461f0	-0.036226213
227	0xbd46b632	-0.0485136
228	0x3b4c5145	0.003117637
229	0xbda8237d	-0.08209894
230	0xbd702104	-0.058625236
231	0xbd91060c	-0.070812315
232	0x3c3572e5	0.011074756
233	0x3cd11cdc	0.025526457
234	0xbd578fed	-0.052627493
235	0xbc6feda6	-0.014644062
236	0xbdadc772	-0.08485307
237	0xbd5d01b4	-0.053956702
238	0x3d6ea89a	0.05826626
239	0xbbeaec39	-0.007169273
240	0xbca896bc	-0.020579688
241	0xbd8de694	-0.06928745
242	0xbbfcf05f	-0.007719084
243	0x3d7aa5d9	0.06119332
244	0xbd76af06	-0.06022551
245	0x3d8d3131	0.06894148
246	0xbd4d7fda	-0.050170757
247	0xbcdd737e	-0.02703261
248	0xbd773091	-0.06034905
249	0xbdafefb3	-0.08590641
250	0x3d4b607a	0.049652554
251	0xba2e2bf9	-0.00066441257
252	0xbc916742	-0.017749432
253	0xbd77ec72	-0.060528226
254	0x3acd51ab	0.0015664598
255	0x3d07ca79	0.033152077

net.3.bias f4 [64]
0	0x3c85f297	0.016351027
1	0xbd98385f	-0.07432627
2	0xbd920eb7	-0.07131713
3	0x3e4f6c3b	0.2025613
4	0x3d19336d	0.03740256
5	0xbcf55f10	-0.029952556
6	0x3bbc361c	0.005743755
7	0x3e02ac83	0.1276112
8	0x3e1c9e33	0.15294723
9	0x3e32aec8	0.17449486
10	0x3e0537e3	0.130096
11	0x3e34c669	0.17653812
12	0x3dacc4e6	0.08435993
13	0x3e551d7d	0.2081203
14	0xbcfc57bb	-0.030803552
15	0x3d645630	0.055746257
16	0x3e31bd10	0.17357278
17	0x3b29e9c5	0.002592669
18	0x3dfe93e5	0.124305524
19	0xbcf0bc60	-0.0293867
20	0x3d89e77c	0.06733605
21	0x3cb9f450	0.022699505
22	0xbd6f06f3	-0.058356237
23	0xbbb8a316	-0.0056346757
24	0x3ca33c7d	0.019926304
25	0x3b9225ae	0.004460058
26	0x3e54cb6e	0.20780727
27	0x3e197316	0.14985308
28	0xbbbe3075	-0.0058041164
29	0x3df1575e	0.11784242
30	0x3db3badb	0.08775874
31	0xbd8bd620	-0.068279505
32	0x3e3d58a0	0.18490839
33	0x3e34040d	0.1757967
34	0x3dfffdf0	0.124996066
35	0xbdc95faf	-0.09832703
36	0x3e3b9067	0.18316804
37	0x3e493bed	0.19651766
38	0x3dc30839	0.09523053
39	0x3da153f3	0.0787734
40	0x3c0c4a18	0.008562587
41	0x3dfde19c	0.12396547
42	0x3ca4a6e1	0.020099105
43	0x3e3cdfce	0.1844475
44	0x3dfb4832	0.122696295
45	0x3d22f1fb	0.03978155
46	0x3d5358e7	0.051598456
47	0x3e4d507f	0.20050238
48	0x3da30ac3	0.07961037
49	0x3e163e41	0.14672185
50	0xbcff76a5	-0.031184504
51	0x3d0c70aa	0.034287132
52	0x3e0dbe6e	0.13842174
53	0x3dd47a95	0.10374943
54	0xbd799f92	-0.060943194
55	0xbda7efe6	-0.08200054
56	0x3e5c3e87	0.21508227
57	0x3d6b6958	0.05747351
58	0x3e2be626	0.16787013
59	0xbc87fb90	-0.016599447
60	0xbce1d82d	-0.027568901
61	0x3d2d4c2a	0.042308964
62	0x3d935e31	0.071957
63	0x3dca686b	0.098831974

net.6.weight f4 [1, 64]
0	0xbc86a837	-0.016437633
1	0xbd89415b	-0.06701919
2	0xbcc7f390	-0.024408132
3	0x3e586eaf	0.21135972
4	0xbd1a7b4c	-0.03771524
5	0xbdd59479	-0.104287095
6	0xbdddbbf5	-0.108268656
7	0x3e555c84	0.20836073
8	0x3e143c18	0.14476049
9	0x3e1370d4	0.1439851
10	0x3e788cea	0.24272504
11	0x3e0df026	0.1386114
12	0x3e6198e5	0.22030981
13	0x3e51e889	0.20498861
14	0xbcaeebe6	-0.02135272
15	0xbc3e3cb6	-0.011611154
16	0x3e188aca	0.14896694
17	0xbdda66c5	-0.10664133
18	0x3e3026e1	0.17202331
19	0xbc4c6bae	-0.012476845
20	0x3e2d78b6	0.16940579
21	0xbd88f609	-0.066875525
22	0x39ebbd6b	0.0004496382
23	0xbd74cc51	-0.059765164
24	0xbd2dc711	-0.042426173
25	0xbdd7a532	-0.105295554
26	0x3e0efad3	0.1396287
27	0x3e3a9a15	0.1822284
28	0xbdc3df47	-0.09564071
29	0x3e80b39a	0.25137025
30	0x3e40848b	0.18800561
31	0xbca1c648	-0.019747868
32	0x3dff18c2	0.12455894
33	0x3e707764	0.23483044
34	0x3e104b95	0.14091332
35	0xbd926e01	-0.07149888
36	0x3e5e5454	0.21711856
37	0x3e643fd6	0.22289976
38	0x3e59dbe4	0.21275288
39	0x3e7b2cdb	0.2452883
40	0xbdb895b5	-0.09012929
41	0x3e3610fc	0.17779917
42	0xbc9c9561	-0.019114198
43	0x3e23c59c	0.1599335
44	0x3e159be9	0.14610256
45	0xbd8da467	-0.06916123
46	0xbd42c130	-0.04754752
47	0x3e57dbb3	0.21079902
48	0x3e475f71	0.19470002
49	0x3e6c5a23	0.2308126
50	0xbcb6c4cd	-0.022310639
51	0xbca7c993	-0.02048186
52	0x3e652ab6	0.22379574
53	0x3e75452e	0.23952171
54	0xbcea3650	-0.028590351
55	0xbca5b844	-0.020229466
56	0x3e2e61a7	0.17029439
57	0xbd633e66	-0.05547943
58	0x3e726972	0.23673037
59	0xbdd3c0a1	-0.103394754
60	0xbda71931	-0.08159102
61	0x3e581e5e	0.21105334
62	0x3e46c6e5	0.1941181
63	0x3e118e85	0.14214523
