models/network_anomaly_detection/model.pt (torch, 16552 bytes, 8 tensors)

encoder.0.weight f4 [64, 9]
0	0x3e92b374	0.28652537
1	0xbe6378a6	-0.22213992
2	0x3e841bee	0.2580256
3	0x3e48e5c9	0.19618906
4	0x3cec4be0	0.028844774
5	0xbe29b671	-0.16573502
6	0xbe6d7193	-0.23187856
7	0xbe7c3412	-0.24629238
8	0xbe35af20	-0.17742586
9	0x3ea9d4ed	0.33170262
10	0xbd188d78	-0.03724429
11	0x3dfd247f	0.12360477
12	0x3ddbf5d3	0.107402466
13	0x3ea4e70f	0.32207534
14	0xbe33bd77	-0.17552744
15	0xbe994082	-0.29932028
16	0x3e66d5ea	0.22542539
17	0xbe736cbb	-0.23771946
18	0xbe6ad5b9	-0.22933091
19	0xbe85bc94	-0.26120436
20	0x3bec7d3e	0.0072170785
21	0xbe814700	-0.2524948
22	0x3d82cb22	0.06386401
23	0x3d63022d	0.055421997
24	0xbdae6320	-0.08515
25	0xbddeb1f3	-0.10873785
26	0xbdda4936	-0.10658495
27	0x3e720a14	0.23636657
28	0x3e4d96ac	0.20077008
29	0xbd343c27	-0.04400268
30	0xbdab93c0	-0.083777905
31	0x3e11d986	0.14243135
32	0x3e721387	0.23640262
33	0xbe8b24e8	-0.27176595
34	0x3ddfc391	0.10925973
35	0x3e8cec3a	0.27523977
36	0xbd0159ae	-0.031579666
37	0x3e6c706c	0.2308976
38	0x3d9bd636	0.07609217
39	0x3d8ddbc7	0.06926685
40	0x3e45e1e5	0.19324453
41	0x3d29d64d	0.04146414
42	0x3e2de5cf	0.16982196
43	0xbe85d5b0	-0.26139593
44	0x3e9e09d3	0.3086687
45	0xbe2b1a1b	-0.16709177
46	0xbeaa0fba	-0.33215123
47	0x3d855a80	0.06511402
48	0x3dfc00d1	0.12304843
49	0x3e2eec26	0.17082271
50	0xbe7c94b6	-0.24666104
51	0x3e3e5729	0.18587936
52	0xbda5341e	-0.08066581
53	0x3e5919d1	0.21201254
54	0x3cd330f5	0.02578018
55	0xbea8ddf7	-0.32981846
56	0x3d9ea1c6	0.077456996
57	0xbd6373cc	-0.055530354
58	0xbdb084d0	-0.08619082
59	0xbdf9b4a6	-0.12192659
60	0x3de6ddb7	0.112727575
61	0x3e352668	0.17690432
62	0xbdb35d62	-0.08758046
63	0xbe1ccd0b	-0.15312593
64	0xbe856900	-0.2605667
65	0xbe972cf6	-0.2952649
66	0xbd117e81	-0.035521034
67	0x3e3968c1	0.18106367
68	0xbe87f1ad	-0.2655157
69	0x3b00d740	0.001965955
70	0xbe1e8a6f	-0.15482496
71	0x3e952f73	0.29137763
72	0xbe8f8317	-0.280297
73	0x3da50d0d	0.0805913
74	0xbdb52cdb	-0.08846446
75	0xbc90eb7f	-0.017690418
76	0xbe6ad28e	-0.22931883
77	0xbdd3ebe8	-0.1034773
78	0xbe45e62b	-0.19326083
79	0x3d1bfbfe	0.038082115
80	0x3d8b8db7	0.06814139
81	0xbe931e0b	-0.28733858
82	0x3e999597	0.2999694
83	0xbe3a33a9	-0.1818377
84	0x3e41e3d3	0.18934564
85	0xbe1978b7	-0.14987455
86	0xbd91051d	-0.070810534
87	0x3d8a684e	0.06758176
88	0xbe6db441	-0.23213293
89	0xbe8f4a2b	-0.27986273
90	0xbd99d741	-0.075117595
91	0x3dcf831a	0.101324275
92	0xbe75ac01	-0.23991396
93	0xbe804d25	-0.25058857
94	0xbdeea8ff	-0.11653327
95	0xbce541a0	-0.027985394
96	0xbd9383aa	-0.07202847
97	0x3e4a50d0	0.1975739
98	0xbe3b184c	-0.18270987
99	0x3e5602df	0.20899533
100	0x3e591bb9	0.21201982
101	0x3e9d4b3c	0.30721462
102	0xbe86dcca	-0.26340324
103	0xbc8bcc32	-0.017065141
104	0xbeaaf7f1	-0.3339229
105	0x3e6aaa9e	0.22916648
106	0x3e5d9e81	0.21642496
107	0x3e12a7e3	0.14321856
108	0x3eaa1d31	0.33225396
109	0x3e80e95d	0.25178042
110	0xbe8d0ce8	-0.2754891
111	0xbe9e08f7	-0.30866215
112	0xbe3b8462	-0.18312219
113	0x3c27c16c	0.010238986
114	0xbe9320ab	-0.2873586
115	0xbe86fa0e	-0.26362652
116	0xbe20291c	-0.15640682
117	0xbe35a087	-0.17737018
118	0x3e897c67	0.26852724
119	0x3e64674a	0.22305027
120	0x3e7d61e4	0.24744374
121	0xbd610b61	-0.054942492
122	0x3c7bd595	0.015370746
123	0x3bc45261	0.0059912656
124	0x3d63a53a	0.055577494
125	0x3dd7ce3b	0.10537382
126	0xbe9ee672	-0.3103519
127	0xbdcf3c47	-0.10118919
128	0xbd874f0b	-0.06606873
129	0xbe1dca8b	-0.15409295
130	0x3eaa00bc	0.33203685
131	0x3d98e25c	0.074650496
132	0x3e9e5383	0.3092309
133	0x3e89fb98	0.26949763
134	0xbea9cc0c	-0.33163488
135	0x3e5b8328	0.21436751
136	0xbd9d892b	-0.07692178
137	0x3dcb02f9	0.09912676
138	0xbe8ba16e	-0.272716
139	0xbe064cec	-0.13115281
140	0x3c5d729c	0.013516095
141	0xbd8348f5	-0.064104
142	0xbb6dc538	-0.0036280882
143	0xbdad8e1b	-0.0847437
144	0x3d43e929	0.04782978
145	0xbe005e90	-0.12536073
146	0x3da25b72	0.07927598
147	0xbe7f43a0	-0.2492814
148	0x3ea01b01	0.31270602
149	0x3e3f3ef2	0.18676355
150	0x3d119a3e	0.035547487
151	0x3e7b5905	0.24545677
152	0xbd43c698	-0.047796816
153	0xbe3536fa	-0.17696753
154	0x3e4ed6f8	0.20199192
155	0xbcc98ce8	-0.024603322
156	0x3e2956ed	0.16537066
157	0x3e822e5a	0.25425988
158	0xbd0b4167	-0.03399792
159	0x3e0a89df	0.13529156
160	0x3d40c987	0.04706719
161	0x3e79099e	0.24320075
162	0x3d4254ce	0.047444157
163	0x3dd850d0	0.10562289
164	0xbd061daa	-0.032743134
165	0x3e268666	0.16262206
166	0xbe18b2f6	-0.14912018
167	0x3e301d85	0.17198761
168	0x3d9803e4	0.07422617
169	0xbe908054	-0.28222907
170	0x3d69d12c	0.057084247
171	0xbe9c8c81	-0.30575946
172	0xbe884947	-0.26618406
173	0x3e14220d	0.14466114
174	0x3ea13798	0.31487727
175	0x3e195ed2	0.14977577
176	0xbe1cdd43	-0.1531878
177	0x3e821ccb	0.25412592
178	0xbe422f33	-0.18963318
179	0xbdbeddb0	-0.09319627
180	0x3eab0b3e	0.33407015
181	0x3c763a96	0.015028616
182	0x3e6dc7a4	0.23220688
183	0x3e898269	0.26857308
184	0xbe041b4c	-0.12901038
185	0xbd7cf423	-0.061756264
186	0xbc5ae1c4	-0.013359491
187	0x3e994a6e	0.29939598
188	0xbe38288c	-0.17984217
189	0x3e7b2469	0.24525608
190	0xbe8d9149	-0.27649906
191	0xbd99564e	-0.074871644
192	0x3d9dfcd2	0.07714237
193	0xbbc2e570	-0.0059477612
194	0x3e9944e3	0.2993537
195	0xbe4153fc	-0.18879694
196	0xbe318946	-0.17337522
197	0x3d412461	0.047153834
198	0xbe31bc53	-0.17356996
199	0xbe3129e1	-0.17301132
200	0x3e74aa05	0.23892982
201	0x3da9854c	0.082773775
202	0x3ea00042	0.31250197
203	0xbe018a6e	-0.12650463
204	0xbded4235	-0.115848936
205	0xbd99424c	-0.07483348
206	0x3e10c518	0.14137685
207	0xbe9f47bd	-0.3110942
208	0xbe222694	-0.15835029
209	0xbe4f3b52	-0.20237473
210	0xbe9d40b7	-0.30713436
211	0xbe46622d	-0.19373389
212	0x3e370879	0.17874326
213	0x3e04d7af	0.12972902
214	0x3e33a9a7	0.17545186
215	0x3e426a80	0.18985939
216	0xbe8fdefe	-0.28099817
217	0xbea13bc1	-0.314909
218	0xbe191264	-0.14948422
219	0xbe7b2377	-0.24525248
220	0xbe19eace	-0.15030977
221	0x3e455beb	0.19273345
222	0x3e51f8b0	0.20505023
223	0xbd97d81b	-0.07414266
224	0xbe4efee0	-0.20214415
225	0xbe916bd8	-0.2840259
226	0x3da4b380	0.080420494
227	0xbe4fd149	-0.2029468
228	0xbdb25f09	-0.08709533
229	0x3c71ea89	0.01476539
230	0x3e991f4c	0.2990669
231	0x3e631cf2	0.2217901
232	0xbd942d22	-0.07235171
233	0xbe6b4058	-0.22973764
234	0x3ddf57fc	0.109054536
235	0xbe6e8b44	-0.23295313
236	0x3eade5bb	0.33964333
237	0x3e21ecdd	0.15813012
238	0xbdee8cfe	-0.11647986
239	0x3d820755	0.06349055
240	0x3e2d6eff	0.16936873
241	0xbdf510b5	-0.11966077
242	0x3e8b66e0	0.27226925
243	0xbdf8dafc	-0.12151143
244	0x3d4dc948	0.050240785
245	0xbe1d1e21	-0.15343525
246	0x3e4647d4	0.19363338
247	0x3e427fbb	0.18994038
248	0x3de82739	0.11335606
249	0xbe93486f	-0.287662
250	0x3e433898	0.19064558
251	0x3df651bc	0.12027308
252	0x3e9e66f6	0.30937928
253	0x3e23802e	0.15966865
254	0xbde46f41	-0.111540325
255	0xbd5d2f75	-0.054000337

encoder.0.bias f4 [64]
0	0xbe2aaf53	-0.16668443
1	0xbc04cdf0	-0.00810574
2	0xbd9000f4	-0.07031432
3	0x3e42fdc0	0.1904211
4	0x3d94cdbd	0.07265804
5	0xbc62a8a9	-0.013834157
6	0x3e8fc5da	0.28080636
7	0xbe8f4164	-0.27979577
8	0xbddb403c	-0.10705611
9	0xbe51bd04	-0.2048226
10	0xbe570655	-0.20998509
11	0x3e8f7dfc	0.28025806
12	0xbe92955d	-0.2862958
13	0xbe4d59fe	-0.2005386
14	0x3de741b6	0.1129183
15	0x3ea29525	0.31754413
16	0x3c5b21f1	0.0133747915
17	0x3cc8a429	0.02449234
18	0xbccb9e00	-0.024855614
19	0x3cf86f95	0.030326644
20	0xbdc3d018	-0.09561175
21	0xbc8f40ad	-0.017486895
22	0xbe44d0d8	-0.19220293
23	0xbe1a3eb6	-0.15062985
24	0xbcacaf87	-0.021079792
25	0x3e7bdb9b	0.24595492
26	0x3c35067e	0.011048911
27	0xbe8b9ad6	-0.27266568
28	0xbe96f50f	-0.2948384
29	0x3db747b6	0.08949225
30	0xbe301e07	-0.17198955
31	0x3e846f87	0.2586634
32	0x3e6c4f14	0.23077041
33	0xbe7b9ee0	-0.24572325
34	0xbd2460c9	-0.040131364
35	0xbe08d960	-0.13364172
36	0xbe9dab22	-0.30794626
37	0xbe9ce8b0	-0.30646276
38	0xbd673579	-0.05644748
39	0xbe415dd1	-0.18883444
40	0x3e8b55d4	0.2721392
41	0xbe11676e	-0.14199612
42	0xbe814777	-0.25249836
43	0xbeac9f94	-0.33715498
44	0xbd9488dd	-0.07252667
45	0x3dac7a55	0.084217705
46	0x3e87cd3c	0.2652377
47	0xbe1a25ec	-0.15053529
48	0x3e7c14e2	0.24617341
49	0x3e201396	0.15632471
50	0x3e677070	0.22601485
51	0xbe511391	-0.2041762
52	0xbe861482	-0.2618752
53	0x3e85981f	0.26092622
54	0x3db21e68	0.08697206
55	0x3d74e933	0.05979271
56	0x3e82a4db	0.255164
57	0xbcfdc959	-0.0309798
58	0xbe94b10d	-0.2904133
59	0xbe85ea3e	-0.26155275
60	0xbdc7d729	-0.097578354
61	0x3cb9d122	0.02268273
62	0xbdf101aa	-0.117678955
63	0x3d365ebe	0.044523947

encoder.3.weight f4 [16, 64]
0	0x3e0f0068	0.13964999
1	0x3ca8f61f	0.020625172
2	0xbcb4ae45	-0.022055754
3	0x3db75061	0.08950878
4	0x3d857f5a	0.06518431
5	0x3d5de386	0.05417206
6	0xbb67e289	-0.0035382828
7	0x3d135657	0.035971012
8	0xbda24175	-0.07922641
9	0x3d1332f1	0.035937253
10	0x3dbc6029	0.091980286
11	0x3dfa1397	0.12210768
12	0xbd4c8488	-0.04993108
13	0xbcfe751a	-0.031061698
14	0xbd9e5566	-0.07731132
15	0x3c87ad97	0.016562266
16	0xbd67cbd1	-0.05659086
17	0x3dcb576f	0.09928786
18	0x3e003945	0.12521847
19	0x3d742b74	0.059611753
20	0x3df0810b	0.11743363
21	0xbda8aa14	-0.08235565
22	0xbc66c197	-0.014084241
23	0xbdcab85a	-0.098984435
24	0xbdaa9bab	-0.083304726
25	0xba266969	-0.0006348105
26	0x3dcc3204	0.09970477
27	0x3d440242	0.047853716
28	0x3d259e86	0.040434383
29	0xbdf43b48	-0.119253695
30	0x3ddef60d	0.10886774
31	0xbd1b9db3	-0.03799219
32	0xbb3608b9	-0.0027776195
33	0xbd970a33	-0.07374992
34	0x3dc6e869	0.097122975
35	0xbdf20831	-0.11817969
36	0x3ca332a8	0.019921616
37	0xbc602731	-0.013681219
38	0x3d7315d5	0.059346993
39	0x3d4e06e9	0.05029956
40	0x3daeb5d6	0.08530776
41	0xbd579a1c	-0.052637205
42	0xbb73ab48	-0.003718095
43	0x3dc04a02	0.09389116
44	0xbd784d45	-0.060620565
45	0x3dc38952	0.09547676
46	0x3be59847	0.0070066783
47	0x3d4aad4d	0.04948168
48	0xba8558dc	-0.0010173577
49	0xbd3c4ac1	-0.04596973
50	0x3dd5a879	0.10432524
51	0xbdf2340c	-0.118263334
52	0xbd465d80	-0.048429012
53	0xbd6c50bf	-0.057694193
54	0x3dc4e6fa	0.09614368
55	0xbc4b1155	-0.012394269
56	0xbe0c36f6	-0.13692841
57	0x3dc54b00	0.09633446
58	0xbce71096	-0.028206151
59	0xbdd9561d	-0.10612128
60	0x3caf37cb	0.021388909
61	0xbd72a832	-0.059242435
62	0xbd9b52f4	-0.075841814
63	0xbccf0b6a	-0.025273997
64	0xbd02d25e	-0.031938903
65	0x3d93e50f	0.07221424
66	0x3de96859	0.11396856
67	0xbdaca867	-0.08430558
68	0x3dd79bb1	0.10527743
69	0x3d3564a6	0.04428544
70	0xbc85e6ab	-0.016345343
71	0x3da60209	0.08105857
72	0xbd955824	-0.07292202
73	0x3d9a21dd	0.0752599
74	0xbaa928d1	-0.0012905841
75	0x3dad104c	0.08450374
76	0xbe00aede	-0.12566707
77	0x3cf2ae4a	0.029624123
78	0xbdf16407	-0.11786657
79	0xbda5b6f0	-0.08091533
80	0x3d7388b9	0.05945656
81	0x3c021f07	0.007941968
82	0x3db54bb2	0.08852328
83	0x3c4fa7d3	0.01267429
84	0xbdbd7134	-0.092501074
85	0x3ca331d7	0.019921226
86	0xbcd8f413	-0.026483571
87	0xbd8f89e0	-0.070087194
88	0xbd98f059	-0.07467718
89	0x3d586566	0.052831076
90	0x3aded1cc	0.001699978
91	0x3d2dd9ed	0.04244416
92	0xbd9b964a	-0.07597025
93	0x3ccf6ac3	0.025319463
94	0x3dc3ff3c	0.095701665
95	0xbdacf4f6	-0.0844516
96	0xbd68a1b9	-0.056794856
97	0xbdad700f	-0.08468639
98	0x3cd395d1	0.025828274
99	0xbc98675a	-0.01860397
100	0xbd881b67	-0.066458516
101	0xbc3683d0	-0.011139825
102	0x3cdb5022	0.026771609
103	0xbe056de5	-0.13030203
104	0xbc12b91b	-0.008955265
105	0x3dcdc671	0.10047615
106	0x3dc45bd7	0.095878296
107	0x3c105936	0.008810332
108	0xbda2a363	-0.0794132
109	0xbd59d379	-0.05318019
110	0xbdb681a6	-0.08911447
111	0xbde0cc83	-0.109765075
112	0x3dc42ac2	0.09578468
113	0xbdaeef65	-0.08541755
114	0xbc6cabc7	-0.014445252
115	0xbe02193d	-0.1270494
116	0x3ddd64ac	0.10810217
117	0xbd970a5c	-0.07375023
118	0x3d1601ce	0.036622815
119	0xb989e706	-0.00026302802
120	0x3d07d2ad	0.0331599
121	0x3d725da7	0.059171345
122	0x3cf9776f	0.030452458
123	0xbb5f81e5	-0.0034104523
124	0x3cde4443	0.02713216
125	0x3db71cdf	0.089410536
126	0xbdb68b1d	-0.089132525
127	0xbde181b5	-0.11011068
128	0x3ddd8feb	0.10818466
129	0xbdd3d25c	-0.10342857
130	0xbd7ba56e	-0.061437063
131	0xbd27f1cd	-0.041002084
132	0x3ce9d8f2	0.02854583
133	0xbcc84573	-0.024447178
134	0xbd85995f	-0.06523394
135	0x3db26c61	0.08712078
136	0x3d4e3f7a	0.050353505
137	0xbd6ced83	-0.057843696
138	0x3dc71e8c	0.09722623
139	0xbc06eca1	-0.008235128
140	0xbd5534e2	-0.052052386
141	0xbccb5bb5	-0.024824003
142	0x3d58aedd	0.052901138
143	0xbd29e091	-0.04147393
144	0x3c485c0b	0.012228976
145	0xbda1b67d	-0.07896135
146	0x3d3186da	0.043341495
147	0x3db4307b	0.087983094
148	0xbc14363e	-0.0090461355
149	0x3cc3b3e2	0.023889486
150	0x3d20ac24	0.039226666
151	0x3d086df4	0.033307984
152	0xbcd54280	-0.026032686
153	0xbdbe416b	-0.09289821
154	0x3d32b640	0.04363084
155	0xbc105aec	-0.00881074
156	0xbce347aa	-0.027744133
157	0xba0945ef	-0.0005236556
158	0x3df3ee62	0.11910702
159	0x3d991ebd	0.07476566
160	0xbdc134a1	-0.09433866
161	0xbdcf1775	-0.10111896
162	0x3dfeb812	0.124374524
163	0xbd7a18e8	-0.06105891
164	0x3dde3ca4	0.1085141
165	0xbd829db9	-0.063777395
166	0x3c1ff489	0.009762892
167	0xbd09f5ce	-0.033681683
168	0xbd3fc4a0	-0.046818376
169	0x3d690353	0.056887936
170	0xbc90edfd	-0.017691607
171	0x3dfa4850	0.12220824
172	0xbdc48506	-0.09595685
173	0xbdb4c984	-0.088274986
174	0xbdda2624	-0.10651806
175	0xbd980dd0	-0.074245095
176	0xbdd50f06	-0.10403256
177	0x3de852bb	0.113439046
178	0xbc1e72ca	-0.0096709225
179	0xbdc360f4	-0.09539977
180	0xbd314c61	-0.04328573
181	0x3c640826	0.013917958
182	0x3d9beb3e	0.07613228
183	0x3d4b7345	0.049670476
184	0xbd928913	-0.07155051
185	0xbe02e4c5	-0.12782581
186	0x3cad1044	0.02112592
187	0x3dfc0d8a	0.1230727
188	0xbdc022cb	-0.09381636
189	0xbddebef5	-0.10876266
190	0xbc8cac08	-0.017171875
191	0x3dceb3aa	0.10092862
192	0xbd342e8b	-0.0439897
193	0xbdff83a9	-0.12476284
194	0x3df7ce91	0.12099946
195	0xbda2b90b	-0.079454504
196	0xbddc5b68	-0.10759622
197	0xbd0c0749	-0.034186635
198	0x3dd72cd6	0.10506599
199	0x3d724fac	0.059158012
200	0x3c0d25e6	0.008614993
201	0xbd7a56ac	-0.061117813
202	0x3dcdad11	0.100427754
203	0x3c9e4dd2	0.019324217
204	0x3d82995c	0.06376907
205	0x3bfb7281	0.007673562
206	0x3baa78de	0.005202397
207	0xbce4992d	-0.027905071
208	0x3cbbe5a2	0.022936646
209	0x3d5b279f	0.053504582
210	0x3d27da2b	0.040979546
211	0x3cbc0297	0.022950454
212	0xbda84d9b	-0.08217927
213	0x3d8165fe	0.063182816
214	0x3dd6147c	0.10453126
215	0x3dac81c5	0.08423189
216	0x3dc82169	0.097719975
217	0xbd0dc814	-0.034614637
218	0x3cae9f07	0.021316065
219	0xbd406387	-0.046969917
220	0x3da1c3b1	0.07898653
221	0xbbe85072	-0.007089668
222	0x3cd27582	0.025690798
223	0x3d6e7293	0.058214735
224	0x3dded8ae	0.10881172
225	0xbda7d975	-0.081957735
226	0xbd835e74	-0.064145
227	0x3da565e1	0.080760725
228	0x3daebc53	0.08532014
229	0x3da0a1ba	0.07843347
230	0x3cdd9d3f	0.02705252
231	0x3d9bca53	0.0760695
232	0x3cc64295	0.02420167
233	0xbbf370bc	-0.0074292105
234	0xbc07c06a	-0.008285621
235	0x3d892b92	0.066977635
236	0xbcf848cf	-0.030308155
237	0xbda5b745	-0.080915965
238	0x3d984aeb	0.074361645
239	0xbc3e3fa0	-0.011611849
240	0x3cff3df6	0.031157475
241	0x3ca9ad68	0.02071257
242	0x3d61d736	0.05513688
243	0xbd854b70	-0.06508529
244	0xbdb0abb7	-0.08626502
245	0xbcdb6df4	-0.026785828
246	0x3dc7828c	0.09741697
247	0xbdf049c6	-0.11732821
248	0xbd358dd8	-0.044324726
249	0x3ddac62c	0.106823295
250	0xbdb837d6	-0.08995025
251	0xbd857ae4	-0.0651758
252	0x3db66a9d	0.089070536
253	0xbc90615c	-0.01762455
254	0xbd8a25e9	-0.06745512
255	0xbd804ecb	-0.062650286

encoder.3.bias f4 [16]
0	0x3d374d4a	0.044751443
1	0xbe06bf8e	-0.1315901
2	0xbd929d31	-0.07158888
3	0x3dcdb1e2	0.10043694
4	0x3e0f4db5	0.13994487
5	0xbca1c8cb	-0.019749066
6	0xbd743d6e	-0.059628896
7	0x3dccf4cb	0.10007628
8	0x3dbf328a	0.093358114
9	0x3de12c9c	0.10994837
10	0xbd51da35	-0.05123349
11	0xbd80aa35	-0.062824644
12	0x3de4e53c	0.111765355
13	0xbbc05508	-0.0058695115
14	0xbb9575c4	-0.004561158
15	0xbd608ae2	-0.05481995

decoder.0.weight f4 [64, 16]
0	0x3e6900de	0.22754237
1	0x3e860851	0.2617822
2	0xbcb84c6c	-0.022497378
3	0xbbdb9e8f	-0.0067022513
4	0x3bfb3608	0.007666353
5	0x3d9c7d2c	0.07641062
6	0x3dde3047	0.10849052
7	0xbe685fd1	-0.22692801
8	0xbe362f61	-0.17791511
9	0xbe15f7e7	-0.14645348
10	0x3e600689	0.21877493
11	0xbdd4450b	-0.103647314
12	0xbdda8252	-0.10669388
13	0xbe2f8d7e	-0.17143819
14	0x3e121a0a	0.14267746
15	0xbdda425c	-0.10657188
16	0x3e3c2ac9	0.18375696
17	0xbd8d43ed	-0.068977214
18	0xbe4c4b12	-0.19950512
19	0xbe349aa4	-0.17637116
20	0xbdfab151	-0.12240852
21	0xbe446085	-0.19177444
22	0x3cf186ea	0.029483277
23	0x3d8f78b1	0.07005442
24	0xbe5b7568	-0.21431506
25	0xbe1c77e9	-0.15280117
26	0xbe1f3683	-0.15548138
27	0x3e316b2c	0.17326039
28	0xbe3368f2	-0.17520502
29	0xbe61be98	-0.22045362
30	0x3d71f3c7	0.059070375
31	0x3e153586	0.14571199
32	0x3d95c01d	0.07312033
33	0xbe2e5bef	-0.17027257
34	0xbdd46b57	-0.10372036
35	0xbe84e709	-0.25957516
36	0x3d2ade11	0.041715685
37	0xbe307c79	-0.17234983
38	0xbe448ba2	-0.1919389
39	0xbe7da74f	-0.24770854
40	0x3e0c0422	0.13673452
41	0xbe21f0f4	-0.15814573
42	0x3e60b7ae	0.21945068
43	0x3e636be6	0.22209129
44	0x3da15252	0.078770295
45	0x3daf5e25	0.085628785
46	0x3e4d8d85	0.20073517
47	0xbe1ccd9f	-0.15312813
48	0x3e2fa462	0.17152551
49	0xbe4e3b48	-0.20139802
50	0xbe2ad34d	-0.16682167
51	0x3968fe58	0.00022219995
52	0xbd479835	-0.04872914
53	0xbdbbed85	-0.09176163
54	0x3e87b966	0.26508635
55	0x3e689aba	0.22715273
56	0x3e24edfc	0.16106409
57	0xbe71068a	-0.2353765
58	0xbe6b9dda	-0.23009434
59	0xbdb7c10c	-0.08972368
60	0x3d785161	0.060624484
61	0xbe2da899	-0.16958846
62	0xbdf40ed6	-0.11916892
63	0xbe6f9aef	-0.23398946
64	0x3e5e2961	0.21695472
65	0x3e5eda5b	0.21762984
66	0x3d24bcb7	0.040219035
67	0x3e00a717	0.1256374
68	0x3b6b6adc	0.0035921847
69	0x3da0a427	0.078438096
70	0x3cae2432	0.021257494
71	0xbe7b5aa5	-0.24546297
72	0xbe628386	-0.22120485
73	0x3e279654	0.1636594
74	0x3dbbeda3	0.09176185
75	0x3e6d716c	0.23187798
76	0x3e1e4e7f	0.15459631
77	0xbdb559c4	-0.08855012
78	0xbc309016	-0.01077654
79	0x3e14d7fe	0.1453552
80	0xbe04086e	-0.1289384
81	0x3e4f42c2	0.2024031
82	0xbd71f92f	-0.05907553
83	0x3e5999a7	0.2125002
84	0x3e1dec4f	0.15422176
85	0xbd5dc5cd	-0.054143716
86	0xbd84f632	-0.064922705
87	0xbe24a994	-0.16080314
88	0x3d3c3171	0.04594559
89	0xbd3ded0c	-0.046368644
90	0xbd792da0	-0.060834527
91	0x3e7855a9	0.24251427
92	0xbd6462c2	-0.055758245
93	0xbdd54334	-0.104132086
94	0x3d39aaab	0.045328777
95	0xbb8d5651	-0.0043132682
96	0x3dfea3c8	0.124335825
97	0x3e1336fa	0.1437644
98	0x3e52d9a7	0.2059084
99	0xbbf34e44	-0.0074251015
100	0x3df4700c	0.11935434
101	0x3e35731c	0.17719692
102	0xbda99fe3	-0.08282449
103	0x3d84eada	0.06490107
104	0x3e70083f	0.23440646
105	0x3d9f14ee	0.07767664
106	0x3d46c9e1	0.04853237
107	0x3d667d02	0.05627156
108	0x3dc2c496	0.09510152
109	0xbe1193b1	-0.14216496
110	0xbe373e44	-0.17894846
111	0xbda9cf23	-0.08291461
112	0x3e41a789	0.18911566
113	0xbdbfa560	-0.09357715
114	0x3e30fccc	0.17283934
115	0xbe2031aa	-0.15643945
116	0x3c61941e	0.013768224
117	0xbe09e141	-0.13464834
118	0xbdb6bbaa	-0.08922513
119	0x3e0e60ce	0.13904116
120	0x3e42b77c	0.19015306
121	0xbe225541	-0.15852834
122	0x3e76bc40	0.24095249
123	0x3e739c3c	0.23790067
124	0xbc4e4bd2	-0.012591319
125	0xbd230325	-0.03979792
126	0xbe653c5a	-0.22386304
127	0x3e540b6a	0.20707479
128	0xbe3f0fae	-0.18658325
129	0x3e68b894	0.22726661
130	0xbd07b340	-0.03312993
131	0x3e46b3d6	0.1940454
132	0xbde99410	-0.11405194
133	0xbe3d966e	-0.18514416
134	0xbcfe0850	-0.031009823
135	0xbd5f6a20	-0.054544568
136	0x3dce5074	0.10073939
137	0x383c2000	4.4852495e-05
138	0x3c5ee680	0.01360476
139	0xbbdacc80	-0.0066772103
140	0xbdf9fa24	-0.12205914
141	0xbe2d9926	-0.16952953
142	0xbe173006	-0.14764413
143	0x3e646458	0.22303903
144	0x3d9cf3f8	0.07663721
145	0x3c1d9011	0.009616868
146	0xbd364fb7	-0.044509616
147	0xbe5d3f84	-0.2160626
148	0x3d88a91e	0.066728815
149	0xbd4e93c8	-0.050433904
150	0x3d4686ed	0.04846852
151	0x3e78c753	0.24294786
152	0x3a8cb7ec	0.0010735965
153	0x3e020426	0.12696895
154	0x3dfd0326	0.12354116
155	0xbe7872a2	-0.24262479
156	0xbe457bd8	-0.19285524
157	0xbe2e8d7f	-0.17046164
158	0xbc875a11	-0.01652244
159	0x3e1c206b	0.15246741
160	0x3d7c8e20	0.06165898
161	0x3d8b06ef	0.06788432
162	0x3e7c2a6e	0.2462556
163	0xbe347788	-0.17623723
164	0x3dbbd349	0.09171159
165	0x3e0520bb	0.13000767
166	0xbd30f452	-0.043201752
167	0xbe03c59a	-0.12868348
168	0x3e676af1	0.22599389
169	0x3dfbca94	0.12294498
170	0xbe140670	-0.1445558
171	0xbd4e0951	-0.050301854
172	0x3e73f5cd	0.23824234
173	0x3ddf65de	0.109081015
174	0xbda8cbf2	-0.082420245
175	0xbe763fee	-0.24047825
176	0x3e072e7b	0.13201325
177	0x3e618747	0.2202426
178	0xbc836a20	-0.016041815
179	0xbdc101fe	-0.09424208
180	0x3e5d18f3	0.21591549
181	0xbdd953c6	-0.10611682
182	0xbd2c0153	-0.04199345
183	0xbcb01f5e	-0.021499332
184	0xbe33c388	-0.17555058
185	0xbe6af3b3	-0.22944526
186	0x3e3b1e42	0.18273261
187	0x3dc8bc90	0.098015904
188	0x3e38911b	0.18024103
189	0xbe67ea16	-0.2264789
190	0xbc933cee	-0.01797339
191	0xbe6e9e5d	-0.23302598
192	0x3e18fedb	0.1494097
193	0xbdde4d7b	-0.10854622
194	0xbca4dc2a	-0.020124514
195	0xbdc34edf	-0.09536528
196	0xbe0652f8	-0.13117588
197	0xbda0ceda	-0.07851954
198	0xbe39fb9f	-0.18162392
199	0xbe3a1130	-0.18170619
200	0x3dedb553	0.116068505
201	0xbdfc98c4	-0.12333825
202	0xbdd7c80a	-0.10536201
203	0x3cdd3d65	0.027006814
204	0xbd1d406f	-0.038391527
205	0xbe26f13e	-0.16302964
206	0xbe808df8	-0.25108314
207	0x3dc69707	0.09696775
208	0xbe592400	-0.21205139
209	0xbe3587c5	-0.17727573
210	0x3e1285e9	0.14308895
211	0x3c15907b	0.009128685
212	0xbe256ee9	-0.1615559
213	0xbe22b6c0	-0.15890026
214	0xbe87a63c	-0.26494014
215	0xbd041a7f	-0.03225183
216	0xbd1c130f	-0.038104113
217	0xbe2f9dd2	-0.17150047
218	0xb8b25a90	-8.50457e-05
219	0xbe27f236	-0.1640099
220	0x3e3da671	0.18520524
221	0x3e4d122a	0.2002646
222	0x3db6b02a	0.089203194
223	0x3e11e1e4	0.14246327
224	0x3dc971bd	0.09836147
225	0x3dbe67bc	0.092971295
226	0x3e3daddd	0.18523355
227	0xbdf81c98	-0.12114829
228	0xbe5ac45c	-0.21363968
229	0x3d7340fa	0.05938814
230	0xbe153a7d	-0.14573093
231	0x3e3d1ebf	0.1846876
232	0x3e39db55	0.18150075
233	0x3da3e455	0.08002535
234	0x3e13324b	0.14374654
235	0xbd8ae5fd	-0.06782148
236	0xbe3864e7	-0.18007241
237	0x3c4af11e	0.012386588
238	0xbdc01f24	-0.093809396
239	0x3e3dff71	0.18554474
240	0x3e3fe393	0.18739156
241	0x3d2cc587	0.042180564
242	0xbbef7b8d	-0.0073084296
243	0x3e539ed2	0.20666054
244	0xbd1dbd4c	-0.038510606
245	0x3d60237a	0.054721333
246	0x3e290cb6	0.16508755
247	0xbd075ad9	-0.033045623
248	0xbe2fc889	-0.17166342
249	0xbd88407d	-0.06652925
250	0xbe29ea3b	-0.16593258
251	0x3e031312	0.12800243
252	0xbe1d3e85	-0.1535588
253	0x3e682488	0.22670186
254	0xbe0570a4	-0.1303125
255	0x3df24016	0.1182863

decoder.0.bias f4 [64]
0	0x3cabe529	0.020983296
1	0x3d601123	0.054703843
2	0x3df23ba2	0.1182778
3	0x3e0e5897	0.13900982
4	0xbd6d9d98	-0.05801162
5	0x3e2cc6ff	0.16872786
6	0x3cbbe41a	0.022935916
7	0xbe720808	-0.23635876
8	0xbe59178e	-0.21200392
9	0x3d5e02e5	0.05420198
10	0x3d7c5b11	0.061610285
11	0xbd8a4abe	-0.06752537
12	0x3e104eb8	0.14092529
13	0x3e553a07	0.20822917
14	0x3cdab69e	0.026698407
15	0x3e731fcb	0.23742597
16	0xbe46d77e	-0.19418141
17	0xbd976a73	-0.073933505
18	0xbe4a02ab	-0.1972758
19	0x3d734aba	0.059397437
20	0x3dbce89f	0.092240565
21	0xbb75215c	-0.0037403917
22	0x3e20aa54	0.15689975
23	0xbdb0ad18	-0.08626765
24	0xbdaa6e24	-0.08321789
25	0x3bc2caae	0.0059445715
26	0x3ddfeea9	0.10934193
27	0xbc109aa0	-0.008825928
28	0x3c5719e7	0.013128734
29	0xbe6f1a07	-0.23349772
30	0xbe366f04	-0.17815787
31	0xbd6fd1cd	-0.05854969
32	0x3e490259	0.19629802
33	0xbe66f3b1	-0.22553898
34	0xbe432294	-0.1905616
35	0x3e4f90a4	0.2027002
36	0x3d1e79c6	0.03869035
37	0x3e34825c	0.17627853
38	0x3e2e2214	0.17005187
39	0x3cc4b399	0.02401142
40	0x3d4e158a	0.05031351
41	0xbb152132	-0.0022755382
42	0x3de47637	0.1115536
43	0xbe42dd84	-0.19029814
44	0xbd233563	-0.039845835
45	0x3e1a2ce1	0.15056182
46	0x3df8b448	0.12143761
47	0xbd3e478d	-0.046454955
48	0x3d70c321	0.05877984
49	0x3d7a5fd4	0.061126545
50	0x3d11e07f	0.035614487
51	0x3c6513b1	0.013981746
52	0x3e27b78e	0.16378614
53	0xbe68be11	-0.22728755
54	0xbe4cc845	-0.19998272
55	0xbe7ae90e	-0.24502966
56	0xbd826360	-0.063666105
57	0x3e23d989	0.16000952
58	0xbd51db17	-0.05123433
59	0x3e03205e	0.12805316
60	0xbd68a32b	-0.056796234
61	0xbe21f8c4	-0.15817553
62	0x3d6d36aa	0.05791346
63	0xbe636394	-0.22205955

decoder.3.weight f4 [9, 64]
0	0x3d1dca77	0.038523164
1	0xbdb4e6e6	-0.08833103
2	0xbd22af0d	-0.039717723
3	0xbd8e1f6f	-0.06939589
4	0xbd23060b	-0.039800685
5	0xbdafa460	-0.08576274
6	0xbd774ef2	-0.060378022
7	0xbd527309	-0.051379237
8	0xbdf67faa	-0.12036069
9	0x3d5dc387	0.054141548
10	0xbc73e617	-0.014886401
11	0x3df01a6a	0.11723788
12	0xbda58e4f	-0.08083784
13	0xbd59b30e	-0.053149275
14	0xbc84dd05	-0.016218672
15	0xbd86550d	-0.06559191
16	0x3dde5240	0.10855532
17	0xbc111d74	-0.00885712
18	0xbda1a2bb	-0.078923665
19	0x3c05ce00	0.00816679
20	0xbd9cef5f	-0.07662844
21	0x3d36c489	0.044621024
22	0x3d3add92	0.045621462
23	0x3cd26247	0.025681628
24	0xbdd460f3	-0.10370054
25	0xbce45cd1	-0.02787629
26	0x3d4128d2	0.04715807
27	0xbe0f0093	-0.13965063
28	0x3daff34a	0.085913256
29	0x3dd2eb6b	0.10298809
30	0x3d70d81a	0.05879984
31	0x3da6a375	0.08136646
32	0xbe132741	-0.14370443
33	0xbd055b60	-0.032557845
34	0x3d9adc10	0.07561505
35	0x3c2b2d4b	0.01044781
36	0xbda7fdda	-0.08202715
37	0xbd903b7a	-0.07042594
38	0x3caec582	0.021334413
39	0xbd8ad756	-0.06779353
40	0x3d8cbe40	0.06872225
41	0x3d220964	0.039559737
42	0x3d78ef07	0.06077483
43	0xbd2016cd	-0.039084245
44	0x3d3e1cc6	0.04641416
45	0x3d6a3347	0.057177808
46	0x3c82730c	0.015924
47	0x3df683d9	0.12036867
48	0xbdaf7858	-0.085678756
49	0x3db9098e	0.090350255
50	0x3dc4c707	0.09608274
51	0x3dedc81e	0.11610435
52	0x3dcb9a12	0.09941496
53	0xbdb5d26e	-0.08878027
54	0xbd9a1d70	-0.07525146
55	0x3e06f1ff	0.13178252
56	0x3e0bcfe4	0.13653523
57	0x3cb40803	0.021976477
58	0x3d8dfe9f	0.06933331
59	0xbc993b47	-0.018705023
60	0x3dca9bc0	0.09892988
61	0x3c6fbaa8	0.014631905
62	0x3d5e4d8e	0.05427318
63	0x3c064df9	0.008197301
64	0xbdb612ce	-0.088903055
65	0xbd62e91c	-0.05539809
66	0x3c373ff5	0.011184682
67	0x3c1462ca	0.009056756
68	0x3d71421a	0.05890093
69	0xbd928e87	-0.07156091
70	0x3d3e622d	0.046480346
71	0x3d9bb297	0.07602423
72	0x3de2c86e	0.11073385
73	0x3dfe383c	0.124130696
74	0xbd67d554	-0.05659993
75	0x3c95fee9	0.018310027
76	0xbe0fe010	-0.14050317
77	0xbe0fa222	-0.14026693
78	0x3dff843e	0.12476395
79	0x3cbb1830	0.022838682
80	0xbd1dadc8	-0.03849581
81	0xbdd0673b	-0.1017594
82	0x3ddb807a	0.10717864
83	0xbc0d1436	-0.008610776
84	0x3dacc49f	0.0843594
85	0xbd9d58c3	-0.076829456
86	0x3d25e9e7	0.04050627
87	0x3cd57064	0.026054569
88	0xbd7e1cbc	-0.062039122
89	0x3a2fe8c4	0.0006710405
90	0x3d928b10	0.0715543
91	0xbd8e9263	-0.06961515
92	0x3d244eac	0.04011409
93	0x3cbe5a09	0.023236291
94	0x3dc180a2	0.09448363
95	0x3d909962	0.070605054
96	0x3dcb672a	0.09931786
97	0x3defc851	0.11708129
98	0x3d23ca07	0.03998759
99	0x3d4cdf24	0.05001749
100	0xbdbabea7	-0.09118395
101	0x3daac072	0.08337487
102	0x3d8ba209	0.06818015
103	0x3dac20ed	0.084047176
104	0x3dc83ad5	0.09776846
105	0x3db61c05	0.08892063
106	0x3cfe95b8	0.03107725
107	0x3d4c71b4	0.049913123
108	0x3da30043	0.07959034
109	0xbdbec190	-0.09314263
110	0x3d2ee580	0.042699337
111	0xbce9cec6	-0.02854098
112	0x3de6f1a7	0.1127656
113	0x3d2b2859	0.041786525
114	0x3dcc2535	0.09968034
115	0x3dab710c	0.08371171
116	0xbd97c6d0	-0.07410967
117	0x3d8e7403	0.06955721
118	0x3c95ef6e	0.018302646
119	0xbc8e95d3	-0.017405426
120	0xbdda4b14	-0.10658851
121	0x3d9517c6	0.07279925
122	0x3d134041	0.03594995
123	0x3db7a013	0.089660786
124	0xbdca0eae	-0.09866081
125	0xbdaf7185	-0.08566574
126	0xbdc84838	-0.097794
127	0xbde37174	-0.11105624
128	0xbd133707	-0.03594115
129	0xbd28ac7e	-0.041180126
130	0xbbef46eb	-0.0073021553
131	0x3d524204	0.05133249
132	0xbdcdf523	-0.10056522
133	0xbc5c7e4c	-0.013457846
134	0x3d9747db	0.07386752
135	0xbb82c8ab	-0.0039912066
136	0x3dc908da	0.098161414
137	0x3dbcde47	0.092220835
138	0x3d83ccac	0.064355224
139	0x3dad0ac1	0.08449317
140	0x3d64dc51	0.055874173
141	0xbdf84d54	-0.12124124
142	0x3d5b41db	0.0535296
143	0xbde410ff	-0.11136054
144	0xbdaab019	-0.08334369
145	0x3d385afd	0.04500865
146	0xbddb1050	-0.10696471
147	0xbd38d7aa	-0.04512755
148	0x3d916a8c	0.071004
149	0x3ddfd858	0.10929936
150	0xbdce4c56	-0.10073154
151	0x3dd951c5	0.106112994
152	0xbd5c6963	-0.053811442
153	0xbd91067e	-0.070813164
154	0x3d591e4b	0.053007405
155	0x3be1b622	0.006888167
156	0x3ce79f2f	0.028274147
157	0xbb326789	-0.0027222356
158	0xbdd16fd0	-0.10226405
159	0x3d6d8398	0.057986826
160	0xbd965509	-0.07340438
161	0xbc02a749	-0.007974454
162	0xbdc33238	-0.09531063
163	0x3df4b4b8	0.11948532
164	0xbd8bbe2f	-0.06823384
165	0x3d9a2a29	0.07527573
166	0x3db464ae	0.088082656
167	0x3d55ce8c	0.05219893
168	0xbe0d2c45	-0.13786419
169	0x3ce99de4	0.02851767
170	0x3dd1ba0e	0.10240565
171	0xbc39d2bb	-0.011341746
172	0xbdda2cc9	-0.10653073
173	0x3afd39c8	0.0019319588
174	0xbde57ae3	-0.112050794
175	0x3b762fa2	0.0037565012
176	0x3ce86057	0.02836625
177	0xbdd573fa	-0.104225114
178	0x3e073b8e	0.13206312
179	0x3cf137d4	0.029445566
180	0x3c969d7c	0.018385641
181	0x3dff7d58	0.12475079
182	0x3da0972e	0.07841335
183	0xbdc9b7c9	-0.09849507
184	0x3d1e8858	0.038704246
185	0xbd5d852d	-0.054082084
186	0xbdd30461	-0.103035696
187	0x3e0c2c75	0.13688834
188	0x3d65d4da	0.056111194
189	0xbd523096	-0.051315866
190	0xbd279e30	-0.040922344
191	0xbc9ecad6	-0.01938383
192	0x3dd6b836	0.10484354
193	0xbbe103a7	-0.0068668905
194	0x3da7184c	0.08158931
195	0x3d9e639d	0.077338435
196	0x3b41ad78	0.0029552858
197	0x3db6ec47	0.08931785
198	0x3d780545	0.0605519
199	0xbddc4ace	-0.10756455
200	0x3d374640	0.04474473
201	0xbcfd8e4c	-0.030951641
202	0x3e12ca96	0.14335093
203	0x3bdf31cb	0.0068113557
204	0xbda8eea2	-0.082486406
205	0x3afd9e7a	0.0019349598
206	0x3e03ecb2	0.12883261
207	0xbe04b300	-0.12958908
208	0x3c1a457a	0.009415979
209	0x3ca90a41	0.020634772
210	0x3d214467	0.039371874
211	0xbd8645f0	-0.06556308
212	0xbdbdd498	-0.09269065
213	0x3d06c157	0.032899227
214	0xbdf8f208	-0.12155539
215	0x3ddb8399	0.1071846
216	0x3e071bc2	0.13194183
217	0xbcfa1cf3	-0.030531382
218	0x3e039fd1	0.12853934
219	0xbcc33180	-0.023827314
220	0x3d82d1d0	0.06387675
221	0x3e076cf1	0.13225152
222	0x3db137b0	0.086532
223	0xbd0f365b	-0.034963947
224	0xbde677ae	-0.11253296
225	0x3de24a9a	0.11049385
226	0x3be31244	0.0069296677
227	0x3e0bf62a	0.13668123
228	0x3e010655	0.12600072
229	0x3c0ad382	0.008473279
230	0xbd4b7663	-0.04967345
231	0x3dad697c	0.08467385
232	0x3dbf4af6	0.093404695
233	0x3e0a5534	0.13509065
234	0x3d8b8719	0.06812877
235	0xbd28fc48	-0.04125622
236	0x3bb728dd	0.005589588
237	0xbd3b0dfa	-0.045667626
238	0xbd096d54	-0.03355153
239	0x3e0b3654	0.13594943
240	0xbc654fbe	-0.013996063
241	0x3dddbbeb	0.10826858
242	0x3cb8e447	0.022569789
243	0xbb2cb32e	-0.0026351917
244	0x3e08896c	0.13333672
245	0x3dda8d8d	0.1067153
246	0x3dc28420	0.09497857
247	0x3c87ce68	0.016577914
248	0xbd987a49	-0.07445199
249	0x3d7da0ba	0.06192086
250	0x3d84679a	0.06465073
251	0x3d1ba3ac	0.037997887
252	0xbb0c251d	-0.0021384426
253	0x3d155e8a	0.036467113
254	0xbd995394	-0.074866444
255	0x3ccc0f36	0.024909597

decoder.3.bias f4 [9]
0	0x3dad086d	0.08448873
1	0xbd7fee96	-0.062483393
2	0xbd32a50f	-0.043614443
3	0xbd9ec5e9	-0.07752592
4	0xbd82318b	-0.06357106
5	0xbd9d28e7	-0.07673817
6	0xbc8264f3	-0.015917277
7	0x3d9f2e67	0.077725224
8	0xbcf01386	-0.029306185
