models/energy_efficiency_optimization/best_model.pt (torch, 41574 bytes, 5 tensors)

net.0.weight f4 [128, 9]
0	0x3eb51c7c	0.35373294
1	0x3d827e50	0.063717484
2	0x3e4a1c80	0.19737434
3	0xbc87efcd	-0.016593838
4	0x3e2655c6	0.16243657
5	0x3d9c0ad3	0.07619252
6	0x3e196fb8	0.14984024
7	0xbe83137a	-0.25600797
8	0x3c4f892a	0.01266698
9	0x3e4c67da	0.19961491
10	0xbe112fac	-0.14178342
11	0x3e71fbdb	0.23631231
12	0xbd943fda	-0.07238741
13	0xbc4e4291	-0.012589113
14	0x3e402987	0.18765841
15	0xbe876875	-0.26446882
16	0xbcf051cb	-0.029335877
17	0xbe80b36e	-0.25136894
18	0xbe4cf20d	-0.2001421
19	0x3db69e40	0.089169025
20	0xbd1b36c1	-0.037894014
21	0xbe938baf	-0.28817508
22	0xbea47844	-0.32123005
23	0xbe889c52	-0.26681763
24	0xbe8a33bd	-0.26992598
25	0xbdda51d7	-0.10660141
26	0xbd159200	-0.03651619
27	0xbe646df6	-0.22307572
28	0xbd3e387b	-0.046440583
29	0x3d6c43cc	0.057681844
30	0xbde256b2	-0.11051692
31	0x3e856496	0.26053303
32	0x3be4dda4	0.0069844294
33	0xbc277ae2	-0.010222169
34	0x3dacdb1f	0.084402315
35	0xbdc559d2	-0.096362725
36	0xbe7fd2fe	-0.24982831
37	0x3e6b2ac4	0.22965533
38	0x3d2cd746	0.04219749
39	0xbe4769a1	-0.19473888
40	0x3e459d41	0.19298269
41	0x3ddfed6f	0.10933959
42	0xbea29e5f	-0.31761453
43	0x3e6bb767	0.23019181
44	0x3e9cef50	0.3065133
45	0x3d14095e	0.036141746
46	0x3e55181b	0.20809977
47	0xbd8c122e	-0.06839405
48	0x3e81a0d3	0.25318012
49	0xbe0ecd39	-0.13945474
50	0x3e118ee9	0.14214672
51	0xbd998127	-0.07495337
52	0xbd444a15	-0.047922213
53	0x3e6fb576	0.23409066
54	0x3e4f7b6e	0.20261928
55	0xbc023801	-0.007947923
56	0xbea13b4e	-0.31490558
57	0xbdac463b	-0.08411833
58	0xbe21a1c6	-0.15784368
59	0xbe2e8d81	-0.17046167
60	0x3d9e1338	0.077185094
61	0xbd61c497	-0.055119123
62	0x3e9a481b	0.30133137
63	0xbd020394	-0.031741694
64	0xbd9dd8e7	-0.077073865
65	0xbd46a4ed	-0.04849713
66	0x3e47c386	0.1950818
67	0xbe25a2c6	-0.16175374
68	0xbdb4d9b6	-0.088305876
69	0xbe9435b6	-0.28947228
70	0x3e9aa941	0.30207255
71	0x3dd1ad5d	0.102381445
72	0x3cdba5a2	0.026812378
73	0x3e8fbc55	0.28073373
74	0x3e4d74c7	0.20064078
75	0xbd460379	-0.048343156
76	0x3e804461	0.2505217
77	0xbe000b7b	-0.1250438
78	0x3d80f508	0.06296736
79	0x3e7d0a98	0.24711072
80	0xbe8b3389	-0.27187756
81	0xbd62303d	-0.055221785
82	0x3d73fb75	0.05956598
83	0x3d2b3f00	0.04180813
84	0xbeb45d18	-0.35227275
85	0x3abc41c0	0.0014362857
86	0x3ea53406	0.32266253
87	0xbe6e9310	-0.23298287
88	0x3e2d5539	0.16927041
89	0x3ea06f04	0.31334698
90	0x3e4ec11f	0.20190857
91	0xbe5fc545	-0.21852596
92	0x3e9b4dff	0.30332944
93	0x3e647db5	0.22313578
94	0xbd45c48b	-0.04828314
95	0xbd30487d	-0.04303788
96	0xbe00493c	-0.12527937
97	0xbe271ed3	-0.16320352
98	0x3ea4c53c	0.32181728
99	0xbe8e075e	-0.27739996
100	0x3d92e8af	0.07173287
101	0x3d4c7d85	0.049924392
102	0xbca56501	-0.020189764
103	0xbe84a13f	-0.2590427
104	0xbe6783b0	-0.22608829
105	0xbe815975	-0.25263563
106	0xbe8460af	-0.25855014
107	0x3e6cf80d	0.23141499
108	0x3ea99618	0.33122325
109	0xbdc7d5b2	-0.09757556
110	0xbe76ffb0	-0.24120975
111	0x3e09700d	0.1342165
112	0x3e816f38	0.25280166
113	0xbe6109d1	-0.21976401
114	0x3ccaa49b	0.024736693
115	0xbe00b286	-0.12568101
116	0x3dbe72af	0.09299218
117	0xbe7be3fe	-0.24598691
118	0x3e977046	0.29577845
119	0xbe20e462	-0.15712121
120	0x3e8c8de9	0.2745202
121	0xbe064e73	-0.13115864
122	0xbe550a50	-0.20804715
123	0xbbad4c3e	-0.00528863
124	0xbe33a329	-0.1754271
125	0xbe4375f9	-0.19087972
126	0xbd80b8aa	-0.06285222
127	0x3d1fd544	0.039021745
128	0x3e9154ab	0.2838491
129	0x3e96bc8d	0.29440728
130	0xbde3c187	-0.11120897
131	0x3e3b0d20	0.18266726
132	0xbe663d41	-0.22484304
133	0xbe96683d	-0.29376402
134	0x3df851da	0.12124987
135	0xbd1aa3b8	-0.03775379
136	0xbe87d939	-0.26532915
137	0xbe7ee18b	-0.24890725
138	0x3ea8f3fe	0.3299865
139	0x3dd42bd8	0.10359925
140	0xbe989048	-0.29797578
141	0x3e178de5	0.14800222
142	0xbd397486	-0.04527714
143	0x3e3ec81a	0.1863102
144	0x3e87a2ef	0.26491496
145	0xbdb3e51d	-0.08783934
146	0xbe0b4125	-0.1359907
147	0x3e34f75a	0.17672482
148	0x3ea06930	0.31330252
149	0xbe70936e	-0.2349374
150	0xbe871a3d	-0.26387206
151	0x3e69d71b	0.22835962
152	0x3e85bf7e	0.2612266
153	0x3dd4f848	0.103989184
154	0x3daa793c	0.08323905
155	0x3e348370	0.17628264
156	0xbea41885	-0.32049957
157	0x3c5646c5	0.013078396
158	0xbe28b736	-0.1647614
159	0xbea15c68	-0.31515813
160	0xbe923515	-0.28556123
161	0x3e538b40	0.20658588
162	0xbe2f038d	-0.17091198
163	0xbe89d64f	-0.26921317
164	0xbd3a5ed2	-0.045500584
165	0xbd322234	-0.04348965
166	0xbeb472bc	-0.35243785
167	0xbdb65b8d	-0.08904181
168	0x3e82adf3	0.25523338
169	0xbea5e83f	-0.32403752
170	0x3e95b867	0.2924225
171	0xbe83478c	-0.25640523
172	0x3e89f45f	0.26944253
173	0xbe8fa0b6	-0.280523
174	0xbd800299	-0.062504955
175	0x3e8473da	0.25869638
176	0x3d15de06	0.03658869
177	0xbeccc2a7	-0.39992258
178	0xbe8611ba	-0.261854
179	0x3eaab45e	0.33340734
180	0x3d25e94d	0.040505696
181	0xbe25472a	-0.16140428
182	0xbe9099b5	-0.2824227
183	0xbe6fca7c	-0.23417085
184	0xbe677344	-0.22602564
185	0xbea5b8dd	-0.32367602
186	0xbebf2278	-0.37330985
187	0xbe599117	-0.21246754
188	0x3e9e7dfb	0.3095549
189	0x3ea6a3ec	0.32546937
190	0xbe8774ed	-0.26456395
191	0x3e08d626	0.13362941
192	0x3e184c47	0.14872847
193	0xbe8d610c	-0.27613103
194	0xbe3a01ca	-0.18164745
195	0xbe83b956	-0.25727338
196	0x3e615468	0.22004855
197	0xbe255579	-0.16145886
198	0xbe2f8f99	-0.17144622
199	0x3e903c4b	0.28171
200	0xbd54bae2	-0.051936038
201	0xbeaa0ac8	-0.3321135
202	0x3e935561	0.28776076
203	0xbe02711d	-0.12738462
204	0xbea48a85	-0.32136932
205	0x3e88c70d	0.26714364
206	0xbe5a4d9b	-0.21318667
207	0x3e15fd1a	0.14647332
208	0xbe0be54d	-0.1366169
209	0x3e198eec	0.14995927
210	0x3e109905	0.14120872
211	0xbe79800e	-0.24365255
212	0xbe877675	-0.26457563
213	0xbe411edf	-0.18859433
214	0xbd899a62	-0.06718899
215	0x3e17fa55	0.14841588
216	0xbd78d300	-0.0607481
217	0xbe8e2465	-0.27762142
218	0xbd07caa6	-0.033152245
219	0x3eae686a	0.34064037
220	0x3e0513ac	0.12995785
221	0x3eab9fde	0.33520406
222	0x3ddd377a	0.10801597
223	0x3e872890	0.26398134
224	0xbe8327df	-0.25616357
225	0xbe95b778	-0.29241538
226	0xbd0dc5e8	-0.034612566
227	0x3eacbf90	0.337399
228	0x3e885317	0.26625893
229	0x3e9f0a3f	0.31062505
230	0xbe2baf7e	-0.16766164
231	0x3e88e777	0.26739094
232	0xbdff58fe	-0.12468146
233	0xbdf1ac2c	-0.11800417
234	0xbd4bc746	-0.04975059
235	0x3d60cfae	0.05488556
236	0x3e62bef1	0.22143151
237	0xbe0780b5	-0.13232692
238	0xbe70f605	-0.23531349
239	0x3e50c10a	0.20386139
240	0xbd82aadd	-0.06380246
241	0xbea9a134	-0.331308
242	0xbe80a5be	-0.2512645
243	0x3e9a70a7	0.30164072
244	0x3b085dbc	0.0020807823
245	0x3e8f4b73	0.2798725
246	0xbe0063d0	-0.12538075
247	0xbda2d9f9	-0.07951731
248	0x3e029c0a	0.12754837
249	0x3e7e6493	0.24843054
250	0xbe39d4b1	-0.18147542
251	0xbe73e192	-0.23816517
252	0xbd846651	-0.06464828
253	0x3e85d372	0.26137882
254	0xbe87e860	-0.26544476
255	0xbd3a5248	-0.045488626

net.0.bias f4 [128]
0	0x3e2f9786	0.17147645
1	0x3eb4418c	0.35206258
2	0xbd0525e9	-0.032506857
3	0xbd911928	-0.07084876
4	0xbd5f4eb2	-0.05451841
5	0x3eb79d20	0.35862064
6	0xbe51fff8	-0.205078
7	0x3e8d66c8	0.27617478
8	0xbeb281a2	-0.34864527
9	0xbe2dec62	-0.16984704
10	0x3e988fca	0.29797202
11	0x3e886fc9	0.26647785
12	0x3e260208	0.16211712
13	0x3eb980e4	0.36231148
14	0xbe2a2140	-0.16614246
15	0xbe88b007	-0.26696798
16	0xbe8c81a7	-0.27442667
17	0x3df41f94	0.119200855
18	0xbe09d450	-0.13459897
19	0xbd369564	-0.044576064
20	0x3e7fc837	0.2497872
21	0xbe87a017	-0.26489326
22	0x3e19f651	0.15035369
23	0xbd3a3967	-0.0454649
24	0xbea48488	-0.32132363
25	0x3e952d5a	0.29136163
26	0xbd353d0c	-0.044247672
27	0x3e9b06de	0.30278677
28	0x3e0ccf22	0.1375089
29	0x3d872626	0.06599073
30	0x3df77df3	0.1208457
31	0xbe7d4bad	-0.247359
32	0x3e876484	0.26443875
33	0xbe0e5752	-0.13900498
34	0xbdf7c368	-0.12097818
35	0xbdfe7f08	-0.12426573
36	0x3eb2f61b	0.3495339
37	0xbe2ba07b	-0.16760437
38	0x3ce63c79	0.028105007
39	0xbc806c66	-0.015676688
40	0xbe55f026	-0.2089239
41	0xbe1a7c33	-0.1508644
42	0x3d27a816	0.040931784
43	0xbdd213d1	-0.10257686
44	0x3e96c494	0.29446852
45	0xbe944100	-0.2895584
46	0xbe48b5e8	-0.19600642
47	0x3ec7ca82	0.3902169
48	0x3dd575f2	0.10422887
49	0x3e95a8be	0.29230303
50	0x3d3c0b0a	0.045908965
51	0x3de92c9e	0.11385463
52	0x3eccd45a	0.4000576
53	0x3d375822	0.044761784
54	0x3e8f6618	0.2800758
55	0xbddf3453	-0.10898652
56	0x3dc6d713	0.09708991
57	0x3e43a57a	0.19106093
58	0xbe80dd79	-0.2516897
59	0xbe5d7ab2	-0.21628836
60	0xbdc142d1	-0.09436572
61	0x3e41b3f7	0.18916307
62	0xbe3918b7	-0.18075834
63	0x3ed0d2af	0.4078574
64	0xbdd5984e	-0.104294404
65	0x3e2387cb	0.1596977
66	0x3db8b0c9	0.09018094
67	0xbd9624da	-0.07331248
68	0x3cdba63e	0.026812669
69	0xbe9b27dc	-0.30303848
70	0x3ea566e2	0.32305056
71	0xbd98a3f3	-0.07453146
72	0xbd34c0bb	-0.044129115
73	0x3e2aafd9	0.16668643
74	0x3e859ec5	0.26097694
75	0x3ecf586e	0.40497154
76	0x3c94b655	0.018153349
77	0xbe4a3502	-0.19746783
78	0x3e326044	0.17419535
79	0xbd86173b	-0.065473996
80	0xbe9eac73	-0.30990943
81	0xbe2ce43a	-0.16883937
82	0xbeab124f	-0.33412406
83	0xbe106778	-0.1410197
84	0xbd67f52a	-0.05663029
85	0x3d1a058d	0.03760295
86	0xbe70e52d	-0.23524924
87	0xbe17d4cd	-0.14827271
88	0xbe89d7d0	-0.26922464
89	0x3ddd047a	0.107918695
90	0xbe977a0a	-0.29585296
91	0x3ced2e08	0.028952613
92	0xbe525ba4	-0.2054277
93	0xbdd3dcec	-0.10344872
94	0xbe36f1b3	-0.17865638
95	0x3ea0a71d	0.31377497
96	0x3eb2583d	0.34832945
97	0xbe4ff1c4	-0.2030707
98	0xbe1b12bd	-0.15143867
99	0x3e8002c8	0.25002122
100	0xbdd75fd1	-0.105163224
101	0x3eb1eda4	0.34751618
102	0xbdee7d02	-0.11644937
103	0xbde647f0	-0.1124419
104	0xbe7f5ec6	-0.24938497
105	0x3defbdeb	0.11706146
106	0x3e0fce87	0.14043628
107	0x3e23691d	0.15958066
108	0xbe423ae9	-0.18967785
109	0xbe04f6b2	-0.12984732
110	0xbe33725a	-0.1752409
111	0x3ec131c7	0.3773329
112	0xbd758c86	-0.059948467
113	0xbe6cbb40	-0.23118305
114	0x3ea061fe	0.31324762
115	0x3cf0254c	0.02931466
116	0xbe1cd72a	-0.15316454
117	0x3ea1a16a	0.31568462
118	0xbccefe31	-0.025267692
119	0xbc393d25	-0.011306082
120	0x3e9cebae	0.3064856
121	0x3ce63cac	0.028105102
122	0xbccfcab9	-0.02536522
123	0x3e8d5bfa	0.27609235
124	0x3e9dadb8	0.307966
125	0xbe0b7e95	-0.13622506
126	0xbbaa3c53	-0.0051951795
127	0x3d952c0f	0.07283794

net.3.weight f4 [64, 128]
0	0xbce00b1f	-0.027349053
1	0x3df6c6a0	0.120496035
2	0x3d8f9812	0.07011427
3	0xbd3089fb	-0.04310034
4	0xbc8ed0a9	-0.017433481
5	0x3d1214c1	0.035664324
6	0xbcc5800a	-0.024108905
7	0xbd06e41b	-0.032932382
8	0xbd6226f6	-0.055212937
9	0x3d139ac0	0.036036253
10	0x3d8aa97e	0.06770609
11	0x3d92c9cc	0.07167396
12	0x3dd1c32b	0.102423035
13	0x3d53f641	0.051748518
14	0xbdae97de	-0.0852506
15	0x3d85407e	0.065064415
16	0x3c8a3ea7	0.016875578
17	0xbc4f90b6	-0.012668779
18	0x3d78f139	0.060776923
19	0x3d879a36	0.0662121
20	0x3c7ed657	0.015554032
21	0x3d5cb7d7	0.05388626
22	0x3d22e08c	0.039764926
23	0xbceff819	-0.029293107
24	0xbc54d691	-0.01299061
25	0x3d76f87e	0.060295574
26	0x3cc27872	0.023739073
27	0x3c50892c	0.012728017
28	0xbd876d00	-0.06612587
29	0x3c3cc6a2	0.011521967
30	0xbd3797ce	-0.044822507
31	0x3c8f372c	0.017482363
32	0x3d4fbd27	0.0507175
33	0x3c119422	0.008885415
34	0xbcd7c86d	-0.026340688
35	0xbc62cd10	-0.013842836
36	0xbbf2e76c	-0.0074128415
37	0xbd80e33a	-0.0629334
38	0x3d8b050c	0.06788072
39	0xbd739a95	-0.059473593
40	0xbd09836f	-0.03357261
41	0x3d7e9f68	0.06216374
42	0x3c9dab6b	0.019246778
43	0xbc959f70	-0.018264502
44	0xbd339b12	-0.04384906
45	0xbda4f211	-0.08053983
46	0x3db1ece4	0.086877614
47	0x3dee918c	0.116488546
48	0xbd603525	-0.054738183
49	0x3dbe7dd3	0.09301343
50	0xbcf22b2f	-0.029561607
51	0x3d9f66f0	0.07783306
52	0x3dbe583c	0.09294173
53	0xbd241e5f	-0.040068027
54	0x3c23236f	0.0099571785
55	0x3c97d8f7	0.018536074
56	0x3cc0fe22	0.02355868
57	0xbce96787	-0.028491748
58	0x3c1d4697	0.009599349
59	0xbd8de0b7	-0.069276266
60	0xbcc8829e	-0.024476346
61	0x3d21335f	0.039355632
62	0x3d9b4166	0.07580833
63	0x3d3934e9	0.045216475
64	0x3c0516a2	0.008123072
65	0x3cda109c	0.026619248
66	0x3dc87216	0.09787385
67	0x3ccb88c3	0.024845487
68	0xbda54279	-0.08069319
69	0x3d1b6bb5	0.037944514
70	0x3be20f8f	0.0068988274
71	0x3cbd8bbe	0.023137923
72	0x3dcdbd4f	0.100458734
73	0x3d8b9300	0.068151474
74	0x3c943484	0.018091448
75	0x3ad8bd8d	0.0016535983
76	0xbc5d7326	-0.013516223
77	0xbd8549ff	-0.06508254
78	0x3d833cde	0.06408094
79	0x3d99d4ea	0.07511313
80	0xbd5600d2	-0.052246876
81	0x3d6380e6	0.05554285
82	0xbdc6e01f	-0.097107165
83	0xbd68f96e	-0.0568785
84	0x3c6d896a	0.014498094
85	0xbc605aa9	-0.01369349
86	0x3d1c3746	0.03813865
87	0xbd2b23d2	-0.041782208
88	0xbc76bdf7	-0.01505994
89	0x3c5e18df	0.013555734
90	0xbc5e9258	-0.013584696
91	0xbd1748cc	-0.03693466
92	0x3dbd62fb	0.09247395
93	0x3d3b1a14	0.045679167
94	0xbd91b06f	-0.0711373
95	0x3c20b553	0.009808856
96	0xbca26558	-0.019823715
97	0x3d8cc337	0.06873172
98	0xbcb2b399	-0.021814154
99	0x3d295a57	0.04134592
100	0x3dd9b3e1	0.10630012
101	0x3dc783a0	0.09741902
102	0x3d7c6898	0.061623186
103	0x3cf3a022	0.029739443
104	0xbcc36fff	-0.023857115
105	0x3dc026dc	0.09382412
106	0x3d8b170c	0.06791505
107	0x3af54222	0.0018711726
108	0x3dd29cd1	0.102838166
109	0xbd888af5	-0.06667129
110	0x3c8f579e	0.017497834
111	0xbcbf9a7b	-0.023389092
112	0xbb501e1e	-0.0031756232
113	0xbd870719	-0.06593151
114	0x3d1c5e8b	0.0381761
115	0xbcb6502a	-0.022255022
116	0x3d58932f	0.05287474
117	0xbbe37c7d	-0.0069423304
118	0x3da36f55	0.07980219
119	0xbd8737c4	-0.06602433
120	0x3d1ed783	0.038779747
121	0x3d4245eb	0.04742996
122	0xba3e2b96	-0.00072544196
123	0x3d437014	0.047714308
124	0x3d4cf07a	0.050034024
125	0xbd18a16d	-0.037263323
126	0xbcbe7794	-0.023250379
127	0x3dc79434	0.097450644
128	0xbd409460	-0.0470165
129	0x3cda149d	0.026621157
130	0xba35319b	-0.0006911994
131	0x3d4da5ae	0.050206833
132	0xbb62b9f8	-0.003459571
133	0xbdb97ab7	-0.09056609
134	0xbb0e1674	-0.0021680864
135	0x3becc659	0.0072257933
136	0xbd649439	-0.05580542
137	0x3d662e79	0.056196664
138	0x3c98eda3	0.018668002
139	0x3d99ac24	0.07503536
140	0x3ca1dbbc	0.019758098
141	0x3d97000b	0.07373055
142	0x3d901b3b	0.07036444
143	0xbd616de3	-0.055036437
144	0x3d38067b	0.044928055
145	0x3cb0435b	0.021516493
146	0xbd517aa1	-0.05114234
147	0x3d50b090	0.050949633
148	0xbd26037e	-0.040530674
149	0x3d47af2f	0.048751052
150	0x3c4cc9a9	0.012499251
151	0xbcb075de	-0.021540578
152	0xbda82c4c	-0.08211574
153	0x3cceb56d	0.025232995
154	0x3d1999aa	0.03750006
155	0xbc7c5296	-0.015400549
156	0x3d01d682	0.03169871
157	0xbd0c63d1	-0.03427488
158	0xbd303285	-0.04301693
159	0xbbbc811f	-0.005752697
160	0xbd03a9ce	-0.03214436
161	0xbdb20276	-0.08691876
162	0xbc9e235a	-0.019303966
163	0x3c4380e7	0.011932588
164	0xbc1b3a58	-0.009474359
165	0x3ceb2c4a	0.028707642
166	0xbcdd9ef1	-0.027053328
167	0xbd89bbda	-0.06725283
168	0x3d6f13c2	0.058368452
169	0x3d832fb5	0.06405584
170	0xbc7fa992	-0.015604394
171	0x3d401f9c	0.046905145
172	0xbcefd65d	-0.029277021
173	0xbdbc8e2c	-0.09206805
174	0xbd951a37	-0.07280391
175	0xbdab0b8d	-0.083518125
176	0x3c446c57	0.011988721
177	0x3cd15dfd	0.025557512
178	0x3d82a774	0.063795954
179	0xbd6efa52	-0.058344193
180	0x3d2ab2e7	0.04167452
181	0xbdc0b179	-0.0940885
182	0x3cb00d63	0.021490758
183	0x3d64367d	0.055716027
184	0xbcae5ce3	-0.021284526
185	0x3d3de058	0.04635653
186	0xbd3f2390	-0.046664774
187	0xbbc78d04	-0.0060898084
188	0xbda290cb	-0.07937773
189	0xbdb9e370	-0.090765834
190	0xbd49a572	-0.049230047
191	0x3d8608a0	0.06544614
192	0x3d79d6ed	0.060995985
193	0xbc431147	-0.011905975
194	0xbcbd8625	-0.023135254
195	0x3cafcc51	0.02145973
196	0xbd127b59	-0.035762165
197	0xbda7c9a3	-0.08192756
198	0x3cc76b81	0.024343254
199	0xbd3f6d7f	-0.046735283
200	0xbc936520	-0.017992556
201	0xbc991d72	-0.018690798
202	0xba4416d8	-0.00074802106
203	0x3d27edbb	0.0409982
204	0x3d68595f	0.056725856
205	0xbcac5320	-0.02103573
206	0x3ccaba7b	0.024747124
207	0xbccf11f6	-0.02527712
208	0x3cfef301	0.031121733
209	0xbd68b669	-0.056814585
210	0xbc85bf34	-0.016326524
211	0x3d4c6e91	0.04991013
212	0xbd36be47	-0.044615056
213	0x3d3ba388	0.045810252
214	0x3d8ebd2c	0.069696754
215	0xbd3a77bd	-0.045524348
216	0xbd78ab01	-0.060709957
217	0xbda68ed2	-0.081327096
218	0x3cc156f9	0.023601042
219	0xbd8ee891	-0.06977952
220	0xbcdd99f9	-0.027050959
221	0x3d08d487	0.033405807
222	0xbda08add	-0.07838986
223	0x3d5bf2b2	0.05369825
224	0xbdbff051	-0.093720086
225	0x3d8e91c5	0.06961397
226	0x3d8b7b31	0.06810606
227	0xbd4ec5ef	-0.050481733
228	0x3bb75aa0	0.00559552
229	0xbd64ce7e	-0.05586099
230	0x3d398293	0.04529054
231	0xbd547db6	-0.0518777
232	0xbdb07378	-0.08615774
233	0x3d601154	0.054704025
234	0xbd78b406	-0.06071856
235	0xbc5830f8	-0.013195269
236	0x3d54b925	0.05193438
237	0xbca8632d	-0.020555103
238	0xbd730c75	-0.05933805
239	0xbcc9b6f2	-0.024623368
240	0xbd1b2339	-0.037875388
241	0xbcf74791	-0.030185493
242	0x3cf35604	0.029704101
243	0xbd9912c5	-0.07474283
244	0xbd27cd3b	-0.040967207
245	0xbd32c466	-0.04364433
246	0xbd879cad	-0.066216804
247	0x3a554a7f	0.0008136406
248	0xbd10723a	-0.035265185
249	0x3d643491	0.055714194
250	0xbd0ad541	-0.03389478
251	0x3d45c6a2	0.048285134
252	0x3d83429e	0.064091906
253	0xbb341610	-0.002747897
254	0xbdb7c3e7	-0.08972912
255	0x3c4b5a16	0.012411615

net.3.bias f4 [64]
0	0x3d1e7da9	0.038694058
1	0xbdcebe79	-0.100949235
2	0x3d979c7b	0.07402893
3	0x3e17636a	0.14784017
4	0xbd647f5a	-0.055785514
5	0x3e100d1b	0.140675
6	0x3dc5f483	0.096657775
7	0x3d4ac029	0.049499664
8	0xbcc264d3	-0.023729717
9	0xbc43de10	-0.011954799
10	0x3d5aa733	0.05338211
11	0x3dba8ba2	0.09108664
12	0x3b9780d5	0.0046235123
13	0x3cc2791c	0.02373939
14	0x3d599ba2	0.05312694
15	0xbca7e987	-0.020497097
16	0xbd32dd5f	-0.043668147
17	0xbd9ce057	-0.07659977
18	0x3e0c6ab6	0.13712582
19	0x3da7095f	0.08156084
20	0xbb45a17f	-0.0030156074
21	0xbaf17437	-0.0018421476
22	0xbb6ca20b	-0.0036107327
23	0xbcf6f7a9	-0.03014739
24	0x3dd4df37	0.10394137
25	0x3b3e8a56	0.0029074154
26	0x3d1f878e	0.038947634
27	0xbd0ac459	-0.033878658
28	0xbb13777e	-0.0022501643
29	0xbc111224	-0.008854423
30	0xbd3a14ed	-0.045430113
31	0x3d432fed	0.047653127
32	0xbd2e6952	-0.04258091
33	0xbc8ebeda	-0.01742499
34	0x3bea829e	0.007156684
35	0x3df73b61	0.120718725
36	0x3daac861	0.083390005
37	0x3c8c7ba5	0.017148802
38	0x3d88a201	0.06671525
39	0xbdc57afc	-0.09642598
40	0xbd877e17	-0.066158466
41	0x3e1537d6	0.14572081
42	0x3c62b3a6	0.013836777
43	0x3de223d4	0.1104199
44	0x3e236df7	0.15959917
45	0xbd3663a9	-0.044528637
46	0x3cfa628e	0.030564573
47	0xbce3a2c1	-0.027787568
48	0x3d17b249	0.03703526
49	0xbda85ea3	-0.082211755
50	0x3d13b0d6	0.036057316
51	0x3d9ab581	0.075541504
52	0x3df3a3c7	0.118964724
53	0xbda2a6cf	-0.079419725
54	0x3d8ab0a0	0.0677197
55	0x3c503917	0.012708924
56	0x3d729add	0.05922972
57	0x3ca992c1	0.02069986
58	0x3df5eea9	0.120084114
59	0x3d74b5f1	0.059743825
60	0x3dd4bb53	0.10387292
61	0x3bc28d4b	0.0059372536
62	0x3d82c169	0.06384546
63	0x3dcd6eae	0.10030876

net.6.weight f4 [1, 64]
0	0x3e0c4a21	0.13700153
1	0x3c021547	0.007939643
2	0x3dbdc785	0.09266571
3	0x3dc67c16	0.09691636
4	0xbda908eb	-0.08253654
5	0x3db16f8c	0.08663854
6	0x3d963179	0.07333655
7	0xba2977e7	-0.0006464705
8	0xbd8a3341	-0.06748057
9	0x3d774298	0.060366243
10	0xbdac802b	-0.084228836
11	0x3dcca2fa	0.09992023
12	0x3d42d3fc	0.047565445
13	0xbdbe7f6a	-0.09301646
14	0x3e0f9e54	0.14025241
15	0xbb8d6f8c	-0.004316276
16	0xbbffef9f	-0.0078105475
17	0xbd1720de	-0.03689658
18	0x3dc45e54	0.09588304
19	0x3dfce8dd	0.12349103
20	0xbcccb02e	-0.024986353
21	0xbd4a4e5f	-0.049391147
22	0xbcb7ecd6	-0.0224518
23	0xbd807515	-0.062723316
24	0x3d3df1ce	0.04637318
25	0xbd3e2c7d	-0.046429146
26	0xbda45bde	-0.08025335
27	0xbc2f208c	-0.010688912
28	0x3d27a676	0.040930234
29	0xbd61251c	-0.05496703
30	0xbd13be74	-0.036070302
31	0xbdb20cbb	-0.086938344
32	0xbb49bc35	-0.0030782346
33	0x3dfe8071	0.12426842
34	0x3d585ba8	0.052821785
35	0x3d9a077f	0.07520961
36	0x3da5ffd6	0.081054375
37	0x3d8ceefb	0.068815194
38	0x3e08a7cf	0.13345264
39	0xbdabb26e	-0.08383642
40	0xbc9c9d3b	-0.019117942
41	0x3d44a6b7	0.048010554
42	0x3dd81af7	0.10552018
43	0x3dd388bf	0.103288166
44	0x3d88594f	0.06657659
45	0xbdb317c8	-0.0874477
46	0x3e07f9ee	0.13278934
47	0x3dfa55af	0.12223374
48	0xbd20b8e2	-0.039238818
49	0xbd8713fd	-0.06595609
50	0x3daeaa44	0.08528569
51	0x3d3b15e2	0.045675166
52	0x3e059629	0.13045563
53	0xbce4ab15	-0.02791361
54	0xbd02be8e	-0.03192001
55	0xbd3d06ba	-0.046148993
56	0x3dcb9f74	0.09942523
57	0xbd96d77e	-0.073653206
58	0x3e023a3c	0.12717527
59	0xbd961ca5	-0.07329682
60	0x3e0669aa	0.13126245
61	0xbdc45026	-0.095855996
62	0xbdb60fbf	-0.08889722
63	0x3d33aab0	0.043863952
