models/dynamic_network_optimization/best.pt (torch, 75946 bytes, 6 tensors)

net.0.weight f4 [128, 10]
000000 23 bd bc be b4 5e 14 be 88 de 6a be 04 5c aa 3d
       -0.3686305 -0.14489251 -0.22936451 0.08318332
000010 4b 5c 97 be 14 b3 3b be f4 fc cd bb 19 c2 ca bd
       -0.295626 -0.18330032 -0.006286258 -0.099003024
000020 31 c7 89 be 42 de 96 3e 32 df 53 bd 79 50 21 3d
       -0.26909783 0.29466444 -0.051726528 0.039383385
000030 e8 f1 95 3d 09 24 af bb c7 1b 7c 3e f7 16 ad bd
       0.073215306 -0.005344872 0.24619971 -0.08451646
000040 e4 9a 2e be c0 e9 d1 bd fb e3 30 be b6 49 c8 bc
       -0.17051274 -0.102496624 -0.17274468 -0.02444921
000050 a5 da ea 3d 5e ad 2f 3e 5a 75 01 be d2 09 0d be
       0.114674844 0.17155978 -0.12642422 -0.13773277
000060 1c 36 9d bc c2 6c 42 3e fe 4c 04 3e 51 db 65 be
       -0.01919084 0.189868 0.12919995 -0.22446944
000070 c3 c6 98 3e 09 4e 6c 3d 95 b3 bb be cc 8b 85 3e
       0.29839143 0.057691608 -0.36660448 0.2608322
000080 17 63 99 bd a0 02 8f 3d 84 61 d3 bd 66 c1 98 3d
       -0.07489603 0.069829226 -0.10321334 0.07458763
000090 89 95 65 be 9b 24 8f 3e 24 c8 a4 3d 31 17 81 3e
       -0.22420324 0.27957615 0.08045986 0.25213006
0000a0 29 a1 24 be 07 b9 74 3d c9 1c 7b be fb 95 83 be
       -0.16077103 0.05974677 -0.245227 -0.25700364
0000b0 86 35 1a 3e 40 0b 89 be 18 5e a2 3e 95 5a 27 be
       0.1505948 -0.26766396 0.31712413 -0.16343148
0000c0 f0 ee 53 be 64 0e 06 3d cb 52 a3 be 23 6c 92 3e
       -0.20696616 0.032728568 -0.31899104 0.28598127
0000d0 ec 4b b0 3d aa b5 88 be a5 81 a2 3d e6 66 23 3e
       0.08608231 -0.267011 0.07934884 0.15957221
0000e0 cf c1 6c 3e d3 27 1c bd 23 97 69 3d 2e 24 64 3e
       0.23120807 -0.038123917 0.0570289 0.22279426
0000f0 33 a0 cf 3e 00 99 2a 3e d9 86 28 bd 67 64 9c bd
       0.4055191 0.16659927 -0.041144226 -0.07636338
000100 68 a9 b9 bd 15 8c 6e 3e a2 0d 2a 3e 42 1b 92 bd
       -0.09065515 0.23295625 0.16606763 -0.07134105
000110 6b 9b 0d 3e e6 55 b6 3d 7e 78 c6 be af 52 67 3e
       0.13828819 0.089031026 -0.38763803 0.22590135
000120 9c f7 83 be 2b 98 72 3d db 09 62 3e c3 a0 a9 3d
       -0.25774848 0.05922715 0.22074072 0.08282616
000130 ad 38 f7 bd 41 87 d3 be 9a 9a 57 be 20 3c 4c be
       -0.12071357 -0.41314128 -0.2105507 -0.19944811
000140 85 20 4c ba b2 7c 61 3e 0c 8e 8d be 1a 51 3b 3e
       -0.0007786828 0.22020224 -0.27647436 0.18292657
000150 19 85 ac 3d 36 9f 05 3e 0c 60 87 bd a2 23 12 3e
       0.08423824 0.13049015 -0.06610116 0.14271405
000160 1f ca 58 3e 00 7c 04 3e d3 61 7b be de 96 da bd
       0.21170853 0.12937927 -0.24549036 -0.10673307
000170 01 52 2f 3e 63 24 5c 3e 65 39 93 3c 7e 1c d5 3d
       0.17121126 0.21498255 0.017971704 0.10405825
000180 33 46 38 3e c9 31 d1 be e2 21 8e be 82 1c 6a bc
       0.17995529 -0.40858296 -0.27760226 -0.014289023
000190 d4 25 9b 3e 27 b7 a4 3e 9c d5 95 3e 78 16 fc 3d
       0.30302298 0.32170984 0.29264534 0.12308973
0001a0 63 e5 3e 3e e4 98 0e bd b2 16 a6 be 79 4c 12 be
       0.18642192 -0.034813777 -0.3243919 -0.14286985
0001b0 7f 0a ac 3d 14 2e 56 be 27 c0 61 be c3 21 91 3d
       0.084004395 -0.20916015 -0.22045957 0.07086518
0001c0 1c df 84 3d ec a9 50 bd c3 e8 53 be af 21 3c bd
       0.06487867 -0.0509433 -0.2069426 -0.04593056
0001d0 e1 a1 83 be 70 f2 17 3d 51 ee 86 be 2c 5d 9c bd
       -0.2570944 0.03709644 -0.26353696 -0.076349586
0001e0 c0 cf 6d be a2 d5 75 3e 3b 74 34 3d 78 69 14 be
       -0.23223782 0.24007276 0.04405616 -0.14493358
0001f0 7b 69 26 bd 0a 72 95 3d b9 fc 4b bd fd d1 5e 3e
       -0.040627938 0.07297142 -0.049801562 0.21759792
000200 b9 7d f4 bd 34 e9 04 3e 25 97 6e 3e 93 38 28 3e
       -0.11938042 0.12979585 0.23299845 0.16427831
000210 17 51 c0 bc 5e 59 12 be d1 71 a8 3d f6 05 3f 3e
       -0.023476167 -0.14291903 0.08224834 0.18654618
000220 a3 3b 91 3e 80 06 57 be b4 10 32 bc 63 f0 3d bd
       0.28365812 -0.20998573 -0.01086824 -0.04637183
000230 5d c4 36 be 6b 31 72 bd ca 01 3f 3e f8 79 49 3e
       -0.17848344 -0.05912916 0.18653026 0.19675434
000240 21 a9 75 be 07 7b 6c 3e 95 9e 56 be cb 1e 4a be
       -0.23990299 0.23093806 -0.20958932 -0.19738309
000250 93 28 47 3e 90 82 8d 3e 6a 2e 85 be 73 b2 42 3e
       0.19449072 0.27638674 -0.26011974 0.19013385
000260 7f 68 0d be 39 67 d9 3d a3 05 22 3e e9 f1 61 3d
       -0.13809393 0.10615391 0.15822463 0.055162344
000270 c8 3b 6c be cb 7c 84 be 1b 39 d9 3c 69 66 b8 bd
       -0.2306968 -0.2587646 0.026516488 -0.09003908
000280 1f 4b 77 be fd 73 30 3e 91 94 13 bd 78 f9 eb 3d
       -0.2414975 0.17231746 -0.036030356 0.11522192
000290 a4 fc 91 3e 5a a6 36 bd 45 f6 4f bd 39 b3 68 3e
       0.28513062 -0.04459224 -0.05077197 0.22724618
0002a0 b6 46 0f 3e ed 0a 81 3d 28 dd da 3e c7 19 bd 3e
       0.13991818 0.06300912 0.42746854 0.3693373
0002b0 3b 17 ac 3e 40 5b 13 be a9 9c 53 3e 04 1f ab 3d
       0.33611473 -0.14390278 0.2066523 0.08355525
0002c0 30 82 7f be aa bf c7 3d 8e db 65 bd 8a c3 13 be
       -0.24952006 0.09753354 -0.056117587 -0.14430061
0002d0 99 a2 88 3d ab f6 b0 3e 6d 92 5d 3e 34 d6 45 3d
       0.06671638 0.34563193 0.21637888 0.048299983
0002e0 e6 b3 93 3e 1f 41 b9 3d fc 23 68 3e 34 a3 59 3e
       0.2884819 0.09045624 0.22669977 0.21253663
0002f0 71 03 82 3d fc a7 a1 3e 93 fc bc 3d d6 b9 d6 bd
       0.06348313 0.31573474 0.09227862 -0.10484664
000300 00 ad 92 be 0f 16 86 bd 34 0c 7a 3e 0b 1d 82 3e
       -0.28647614 -0.06547176 0.24418718 0.25412783
000310 06 6d 58 be 51 3c 76 be f6 a4 a5 be 09 d4 78 be
       -0.21135339 -0.24046446 -0.32352418 -0.24299635
000320 c9 dd df bd 4a 52 bb 3d c0 a8 0d 3d bb 31 fb 3b
       -0.10930974 0.09146555 0.03458476 0.0076658404
000330 73 d4 89 3e e9 6c 21 be ca 5c 05 be ca 4d 9b be
       0.26919898 -0.15764202 -0.13023677 -0.30332786
000340 d1 dd 86 bd e9 7d 70 be 36 24 88 3e fe 90 b4 bd
       -0.06585277 -0.23485531 0.26590127 -0.088167176
000350 c9 49 a4 3e d3 76 be 3d 5c d4 57 bd e4 a1 65 3e
       0.32087544 0.09300008 -0.052692756 0.22425038
000360 6e dd dd 3d a8 3c 83 be 4f 7c 52 3d 13 f6 1d 3e
       0.1083325 -0.25632215 0.05138808 0.15425901
000370 55 76 6f be d1 54 39 3e 58 35 42 bb a1 8b 4f be
       -0.23384984 0.18098761 -0.0029633846 -0.20268108
000380 44 0b 3d bd a4 5d 56 bd 74 ac 0c 3e 7f c6 c1 3d
       -0.04615332 -0.052335396 0.1373766 0.09461688
000390 94 e5 94 3e 58 06 ad 3d 78 a4 4f 3e 0d d2 a3 be
       0.29081404 0.084484756 0.20277584 -0.31996194
0003a0 cb ca 42 be 7c d5 12 bd dd f3 5b 3e 8f a4 51 3e
       -0.19022672 -0.035848126 0.21479745 0.2047293
0003b0 e8 a5 06 bd 03 88 26 3b d9 01 99 3e 29 50 cf 3d
       -0.032873064 0.002541066 0.29884222 0.10122711
0003c0 bc 28 22 be ca 90 16 be 36 59 9e be 30 02 27 3e
       -0.15835851 -0.1470367 -0.30927438 0.16309428
0003d0 27 e7 48 be f1 02 46 3e 53 a8 1a be f7 47 48 3e
       -0.19619428 0.1933706 -0.15103273 0.19558702
0003e0 5a 6e 0e 3d 4e 32 45 be 12 c7 43 be ed 12 ed 3d
       0.03477321 -0.19257471 -0.19118908 0.115758754
0003f0 ae a0 20 3e b6 ff 94 3d 90 d5 d8 3b 11 6a 9e be
       0.15686294 0.072753355 0.0066172555 -0.30940297

net.0.bias f4 [128]
000000 72 ad 52 bd 88 94 ae 3e 41 87 fe bd 54 e5 b2 3e
       -0.05143494 0.34097695 -0.124281414 0.34940588
000010 6a 28 f9 bd ee 21 4b be 0a 3b aa be 8f a9 a4 3e
       -0.121659115 -0.19837162 -0.33248168 0.32160613
000020 9b 3e a3 be 05 3b 89 3e 76 3d ca bc 9c 74 11 be
       -0.31883702 0.2680284 -0.02468751 -0.14204639
000030 b4 dc b1 3e c8 bc 77 be a2 9d 6d 3e 4f 36 81 3e
       0.34738696 -0.24193108 0.23204663 0.25236747
000040 81 81 99 be 99 45 2f be 57 6b 1e be 47 8e 21 be
       -0.29981616 -0.17116393 -0.15470634 -0.15776931
000050 ed 1b 67 be c7 e8 cd bc 77 e8 3e bd 62 32 19 be
       -0.22569247 -0.025135411 -0.046608415 -0.14960626
000060 7e af c8 3d 71 1c 91 3c d9 16 b2 3d c5 99 9a bc
       0.097990975 0.017713757 0.08695764 -0.018872151
000070 bb 48 7e 3d 86 18 50 3d 9c 21 f7 3d 06 26 c8 3d
       0.06208108 0.050804637 0.12066957 0.097728774
000080 89 75 9c 3e e4 b4 12 3e ff a7 be 3d 29 30 6a be
       0.30558422 0.14326817 0.093093865 -0.22869934
000090 a9 52 a1 be fc ff a9 be 7a bb 53 3e b8 d0 ea 3d
       -0.31508377 -0.33203113 0.20676985 0.11465591
0000a0 78 f7 1b be 93 bf 47 3d 61 52 b2 3e ca 1a 8d bd
       -0.1523112 0.048766684 0.34828475 -0.06889875
0000b0 75 b1 5e 3d ea 33 a5 3e a9 75 3a be ac e0 1f be
       0.054368455 0.3226617 -0.18208946 -0.1561305
0000c0 ca 92 97 3e df d3 f0 bd 52 b0 d1 3d be 06 97 be
       0.2960418 -0.11759161 0.102387086 -0.2949733
0000d0 3d 3b f4 3d c9 7a 93 be ee 6e 7f 3e e4 fc 9d 3d
       0.11925361 -0.28804615 0.2494466 0.07714251
0000e0 87 7a e2 bc f9 53 85 3e 94 df 7b 3e 60 1e f2 3d
       -0.027646316 0.2604063 0.24597007 0.118222
0000f0 54 9c 4c 3e 35 4c 9b be b5 18 9d 3d ee 51 b2 bd
       0.1998151 -0.3033158 0.07670728 -0.08707033
000100 03 52 61 be af b9 09 3e 06 40 c8 bd 82 84 8a 3e
       -0.22003941 0.13449739 -0.097778365 0.2705422
000110 9c c6 77 3d f0 33 50 3d 65 9e 9a bd 49 e8 e9 3d
       0.060492143 0.05083078 -0.075497426 0.11421258
000120 39 fd d5 bd 7b 33 58 3e d8 f8 ad bd c5 97 bc 3e
       -0.10448689 0.21113388 -0.08494729 0.3683454
000130 54 d4 5d 3e 32 0f 17 3e bb 0d 9c 3e 59 eb 21 3e
       0.21663028 0.1475189 0.30479226 0.15812434
000140 e2 14 2a 3d e5 28 91 3e a7 b8 11 3e bf 99 ff 3d
       0.04152382 0.28351513 0.14230596 0.124804966
000150 a4 95 38 be d5 98 64 3e 4d 7d a4 be e9 a0 16 3e
       -0.18025833 0.22323926 -0.32126847 0.1470982
000160 89 ae b3 3e 69 88 af 3e e7 38 78 be 70 12 30 bd
       0.35094097 0.3428376 -0.24240457 -0.042986333
000170 be 5d a8 3e 44 41 93 3e dd 56 c6 bc 14 2b 4d 3d
       0.3288402 0.2876073 -0.024211342 0.05008991
000180 14 05 63 3e 47 73 b2 bc c8 78 fd 3d 4b ac a5 bd
       0.22169906 -0.021783484 0.12376553 -0.08089503
000190 a4 fa 26 3d 46 ae 61 be 47 d6 6f be d4 38 b0 3e
       0.040766373 -0.22039136 -0.23421584 0.34418356
0001a0 2f 32 a3 bc 83 4b 1e be a2 e8 06 be 26 75 13 3e
       -0.01992139 -0.15458493 -0.1317468 0.14400157
0001b0 37 5d e9 3d d5 bd 56 3d 4f 52 07 3d 1a 76 cc bd
       0.113947324 0.05242713 0.03303748 -0.099834636
0001c0 1c 68 cc 3c 56 66 8c 3e e9 bf 8d 3e 30 94 73 3e
       0.024951987 0.27421826 0.27685478 0.23786998
0001d0 59 ba 57 3e 19 c3 fb 3d aa 76 6e 3e 61 61 98 bc
       0.2106718 0.12293071 0.23287454 -0.018601121
0001e0 5e 07 22 be 19 7f a9 be e1 5a f3 3b e6 aa 94 be
       -0.15823123 -0.3310478 0.007426605 -0.29036635
0001f0 9a 7a 54 3e 37 90 38 be 64 6d ec 3c 06 f7 34 be
       0.20749894 -0.18023764 0.028860755 -0.17672357

net.3.weight f4 [128, 128]
000000 ef 8c dc 3b 14 38 c7 bd a0 1d 0e bd f1 21 91 3a
       0.006730668 -0.09727493 -0.03469622 0.0011072737
000010 36 14 5a bd 7a dd 79 bd aa 8a 18 3d 36 cd 3c bd
       -0.05324193 -0.061002232 0.037241615 -0.046094142
000020 3a 56 87 3d be c4 c5 bd f1 7c c2 3c 01 2d 9c 3c
       0.06608243 -0.09656666 0.023741217 0.019064428
000030 b9 4b 55 bd f9 7f db bb a9 a0 14 bd 92 6b 3a bd
       -0.052074168 -0.006698605 -0.03628603 -0.045512743
000040 c1 0e 40 3d c9 3e 34 bd 80 28 af bd 6f 30 81 bd
       0.04688907 -0.04400519 -0.08552647 -0.06308066
000050 45 76 a5 3c a7 d5 3e 3d 7a bf df 3c 50 d1 ac bd
       0.020197997 0.046590474 0.027312983 -0.08438361
000060 05 8f 01 3c f2 ea 99 bd e2 56 4e 3a 10 01 92 bd
       0.007907634 -0.075155154 0.0007871223 -0.07129109
000070 63 f9 c4 3b 6d dd bf 3c 66 e3 89 3c 33 d1 a3 bc
       0.0060111745 0.023421014 0.016832065 -0.019997215
000080 3d 78 88 3d b6 3b be bc 19 3c fe 3c e8 51 94 3d
       0.06663559 -0.023221832 0.031034516 0.07242185
000090 66 7c 96 bd 8f 6c 04 3c c0 93 80 3c 6d f6 9b bd
       -0.07347946 0.008082523 0.015695453 -0.07615361
0000a0 8e 5d 75 3d 08 1f 28 3d 1e 8e 18 3d 86 f2 2a 3d
       0.059903674 0.04104522 0.03724491 0.041735195
0000b0 ca cb c2 bd ec 6a 3b bd 42 fb 1c bd 3e f8 6f bd
       -0.09511526 -0.045756266 -0.038325556 -0.05858635
0000c0 9b b9 ee 3c f5 39 67 bd 1d 78 99 bd 9e c1 83 3d
       0.029141238 -0.056451757 -0.07493613 0.06433414
0000d0 6b c7 85 bd 5f 18 99 bd 83 ea 48 bd 9f 4d 5d bc
       -0.065321766 -0.074753515 -0.049051773 -0.013507276
0000e0 58 49 01 3b 69 0e bf bd 69 88 66 3d de 3d 4e 3b
       0.0019727554 -0.093289204 0.056282435 0.0031469981
0000f0 35 8f 90 3d 76 81 60 bd b8 96 34 bc 57 9c a0 bd
       0.070585646 -0.054810964 -0.011022262 -0.078423195
000100 cb f5 fa 3b 77 89 32 bc 80 fd 66 bd 2f 5d b4 bd
       0.0076586953 -0.010897032 -0.0563941 -0.08806836
000110 87 7f 2d bd 20 ce 9d bd a2 fd 37 bd 5b ed b2 bd
       -0.042357948 -0.07705331 -0.044919617 -0.08736678
000120 9c bf c3 bd ce 8f b3 bd e0 34 ac bd c0 dc 8b 3d
       -0.09558031 -0.08767663 -0.084085226 0.06829214
000130 99 da 31 3d d5 bb 3c bd 46 e4 88 bd a9 89 6f bc
       0.04342136 -0.046077568 -0.06684165 -0.014620223
000140 15 ba 75 bd 95 67 4c 3d ee 43 66 bd ea c9 60 3d
       -0.059991915 0.04990347 -0.056217127 0.05488006
000150 36 fd 01 bd af 12 e5 3b b6 d4 3c bd 91 c1 fd 3c
       -0.03173562 0.0069907526 -0.046101294 0.030976089
000160 d4 3f c7 bd b3 cb bb bd 64 6e 7b bd bc 17 62 3b
       -0.09728971 -0.09169712 -0.061384574 0.003449901
000170 7c d6 8c bc 2a 03 c1 3c 83 bb fb bc b6 b2 79 3d
       -0.017192118 0.023561079 -0.030729061 0.060961448
000180 8a aa 39 3d bb 7a 80 bd 17 b4 45 bd 3f 22 70 3d
       0.045328654 -0.06273409 -0.04826745 0.05862641
000190 ea a8 11 3d 2a ce 87 3d ed e5 e5 3c 52 4c b7 bd
       0.03556148 0.066311195 0.028063739 -0.08950104
0001a0 bb c7 8b bd 87 27 8c bd 67 6d 1a 3d 5b 2c ee 3c
       -0.06825205 -0.06843477 0.03770199 0.029073885
0001b0 f5 07 c3 3c 03 5d c0 bd af 55 5e 3d 94 e7 6d bc
       0.023807505 -0.093927406 0.054280933 -0.014520545
0001c0 1c 4f e4 bb af 22 6a bb 74 e5 3a bd cf ae 7b bd
       -0.0069674384 -0.003572624 -0.04562898 -0.061446007
0001d0 ae c1 b9 bd 6d 60 22 3d df 2a 65 bc 33 32 4f bd
       -0.090701446 0.03964274 -0.013987272 -0.050584983
0001e0 07 ec b3 bc c8 a0 90 bd 24 30 a2 bc 05 cb 53 3c
       -0.021963133 -0.070619166 -0.019798346 0.012926822
0001f0 8e 6c fe 3c 79 9f e0 3a 3b f5 80 bd 2e 3c f3 3c
       0.031057622 0.001713737 -0.06296774 0.029691782
000200 58 8f 26 bd 7b 9a 28 3c a8 ba 34 3d b1 1f 13 bd
       -0.040664047 0.010290737 0.04412332 -0.035918895
000210 f6 73 8a bd 5c 59 a8 bb 35 9e 7b 3d 0a 2d 11 3d
       -0.06760399 -0.0051376056 0.061430175 0.035443343
000220 36 4e 18 bd b3 11 2b 3d ea 91 55 3d 9f 05 a6 bc
       -0.037183963 0.041764926 0.052141108 -0.020266352
000230 c7 05 65 3d 35 e9 65 3c 07 45 79 bd 64 bd e4 3c
       0.055913713 0.014032652 -0.060856845 0.02792234
000240 fd b8 4b bd e2 1a 8a 3b c0 5b 2b bd 7e d5 c6 bd
       -0.049736965 0.0042146305 -0.041835546 -0.09708689
000250 f0 e7 c1 bd ea 59 62 3c 02 a6 70 3d 80 60 2a bd
       -0.09468067 0.0138153825 0.058752067 -0.041595936
000260 4d 2f 80 3c f3 9a b5 bd 7d ff 96 3c d8 fb 96 bc
       0.015647555 -0.08867445 0.018432373 -0.018430635
000270 81 07 26 3d ad 1b 95 bd b8 fe ab bd 92 b9 aa bd
       0.0405345 -0.07280669 -0.08398193 -0.08336176
000280 62 d7 92 3d 6d 45 bf bd f5 5b cc bc fe 78 ab bd
       0.07169987 -0.09339414 -0.024946192 -0.08372687
000290 95 48 b3 bd 51 97 3c 3d e4 a4 6f 3d c5 24 57 bd
       -0.08754078 0.046042744 0.05850686 -0.0525253
0002a0 24 d3 ac bc 0d 22 cc 3c 5d ec 97 bd e8 db bb bb
       -0.021096773 0.02491858 -0.074181296 -0.005733002
0002b0 25 f6 c4 bd 54 0e 93 bc 23 ee 75 3d d3 f7 be 3c
       -0.09617261 -0.017951168 0.060041558 0.023311531
0002c0 ac 14 cf bd 87 eb 1c bd 6c ce 66 bd 89 cf 8f bd
       -0.10111365 -0.038310554 -0.056349203 -0.07022006
0002d0 a2 9b bb bd 45 c0 16 3d 06 48 81 3d f5 75 89 3d
       -0.09160544 0.036804456 0.063125655 0.06711952
0002e0 54 ad dc bb ed 96 5a bd d3 63 a4 bd 74 21 8f 3c
       -0.0067345295 -0.05336659 -0.080268525 0.017472006
0002f0 e9 58 9c bc ca b9 ab bc b8 1e b5 3c 13 45 94 bd
       -0.019085364 -0.020962615 0.022109374 -0.07239737
000300 11 f8 43 3d 61 32 28 bd 6f e8 45 bd 65 6a 55 bc
       0.047843996 -0.04106367 -0.04831737 -0.013025855
000310 cf 3f 7b bd 19 e6 9f 3c b9 1b ab bd 8a d3 93 bc
       -0.06134015 0.019518899 -0.08354897 -0.018045206
000320 70 d7 9a bd f1 38 ef 3c 81 1d 7d 3d 71 79 9a bb
       -0.07560623 0.029201956 0.061795715 -0.004714184
000330 59 69 c0 bd 22 e1 27 3d 4b 15 d2 bc 09 84 d0 3b
       -0.093950935 0.040986188 -0.025644919 0.006363396
000340 5e fa 2c bd 49 75 c5 3c 29 e2 c1 bd 4f 94 7e bd
       -0.042230956 0.024103777 -0.09466965 -0.062153157
000350 0c af c4 bc 0b a9 2d 3d 3b ea 0b bd f2 1b 65 bc
       -0.02400925 0.04239754 -0.034158926 -0.013983713
000360 64 5a 29 bd 13 b5 a7 bd b3 66 8d bd cd 78 ab bc
       -0.04134597 -0.08188834 -0.06904354 -0.020931626
000370 ee 58 60 3d b0 57 6c 3d cd b0 a7 bc ca 5c 3a bd
       0.05477231 0.057700813 -0.020470047 -0.045498647
000380 1f 0f b4 3c c0 0d a5 bd c1 80 59 bd 81 f5 3b bd
       0.021979867 -0.08059263 -0.053101305 -0.045888428
000390 b8 c8 a3 bc ff 93 9e 3d 55 95 21 3d d3 fb ee 3c
       -0.019993171 0.07743072 0.039449055 0.029172814
0003a0 a7 65 94 bd d8 8f 29 bc 65 6b ea 3c d5 e0 1d 3d
       -0.07245951 -0.010349236 0.028615663 0.038544495
0003b0 c5 22 de 3c 87 34 2e 3d 22 67 8d bd 43 f5 99 bb
       0.027116189 0.042530563 -0.06904437 -0.004698427
0003c0 36 ae 50 bd 0f 60 50 bb e1 e4 ee bb 54 8f 42 3d
       -0.05094739 -0.0031795537 -0.007290468 0.04749997
0003d0 0f 35 49 3d 47 9e 5d 3b 5d 00 cc bd cf ab 6a bd
       0.049122866 0.0033816264 -0.09961007 -0.057292756
0003e0 57 f8 66 bd 0a d8 e0 3c 25 10 52 3d 21 b2 b0 bd
       -0.05638918 0.027446765 0.051284928 -0.086277254
0003f0 c3 45 31 3d a8 19 8f 3c c3 7c 63 3c bb 65 4c bd
       0.04327942 0.017468289 0.013884726 -0.049901705

net.3.bias f4 [128]
000000 36 13 81 bc c8 f3 63 bd 71 43 41 bd 69 64 6e bd
       -0.01575623 -0.05565241 -0.047183458 -0.058201227
000010 4f 37 e4 3d a4 98 f0 bc 13 cb 97 3c 52 fe fa 3c
       0.11143362 -0.02936966 0.01852945 0.030638848
000020 c4 d3 c8 bc 33 b8 c0 3c cf 8f 8a bd d0 17 9c 3d
       -0.02451504 0.023525333 -0.067657106 0.076217294
000030 f8 a8 03 3e fa de 1c bd 5e b7 18 bd b1 e1 06 3e
       0.12857425 -0.038298585 -0.037284248 0.13172032
000040 7c 5e 3c bc 7d 10 b5 3c df 31 03 bc e8 53 7e bd
       -0.011497136 0.022102589 -0.008007496 -0.062091738
000050 c3 56 e5 3c 91 24 88 bd 6b 78 6f 3b 7e 74 a3 3a
       0.027995473 -0.066475995 0.003654028 0.001247063
000060 df da c8 bd 0d f2 0c 3c 44 1a 7c 3d 82 a1 a1 3d
       -0.09807371 0.008602631 0.061548486 0.07892133
000070 7a 94 5e bd 57 4d 05 3d 88 4c fc 3d 1a e5 7f 3d
       -0.054340817 0.03254446 0.12319285 0.062474348
000080 ee f0 10 bd ae a2 c1 bc 30 f5 69 3c 1e 4b 98 bd
       -0.03538602 -0.023637142 0.014279649 -0.074362025
000090 75 24 41 3d 89 2f 2a bd 3a d4 48 3d 73 51 86 bd
       0.04715391 -0.04154924 0.04903052 -0.06558504
0000a0 34 70 38 3d 3c 1e a3 3d fa ca 80 3c 46 9a 1f bd
       0.04502888 0.07964751 0.015721787 -0.038965486
0000b0 27 21 ea bc 7c bc 1f 3d 4e bb 56 3d 64 fa 96 3d
       -0.028580261 0.038998112 0.05242472 0.07371977
0000c0 14 c1 aa bd b3 0a 23 ba 85 e1 7a 3c 6b 86 92 bc
       -0.08337608 -0.0006219551 0.015312557 -0.017886361
0000d0 1e f2 24 bd 10 ac d9 3c 83 ad 4f 3d 4c e1 68 bd
       -0.040269963 0.026571304 0.050702583 -0.056855485
0000e0 c1 73 e0 3d 21 64 29 3e 08 3d 65 3d a3 30 10 bd
       0.10959578 0.16542102 0.055966407 -0.035202634
0000f0 31 50 81 3c a7 49 50 bd b9 93 25 bb 2f dc bb bd
       0.015785309 -0.05085149 -0.0025265052 -0.09172856
000100 c6 4c 10 bd e1 02 f2 3d 6d 93 b6 ba 4f bf 84 3c
       -0.035229467 0.11816955 -0.0013929434 0.016204504
000110 bf e9 50 3d fd 18 aa 3d 55 6b a2 3d f9 68 9e bd
       0.051004168 0.083055474 0.07930628 -0.07734866
000120 f5 c7 8c bd ae 0f fa bc cd a5 85 bd 79 37 5a 3d
       -0.06874076 -0.030525055 -0.065257646 0.05327556
000130 ad 30 43 3d b9 b8 b9 bd a5 f5 11 3d 86 86 4d 3d
       0.047653843 -0.09068436 0.035634656 0.05017712
000140 60 b1 be bc c8 23 4a 3d 61 91 40 3d c9 ba 69 3d
       -0.023277938 0.04935053 0.047013644 0.057062898
000150 d3 18 f6 3d 84 3b 3a 3d b5 a3 a4 3d ce 45 30 3d
       0.120164536 0.045466915 0.08039037 0.04303532
000160 5d d4 97 bd 3e 20 ba 3b 08 3f eb 3d ef 12 f7 3d
       -0.07413552 0.005680113 0.11486632 0.12064158
000170 70 a6 a6 bd 0c a5 13 bc 06 f9 2a 3b 86 e3 99 bd
       -0.08137214 -0.009011518 0.002608837 -0.075141
000180 02 74 a8 3c 33 f5 00 3d c6 63 41 bb 9e 57 59 3d
       0.02056313 0.03148384 -0.0029508932 0.053062074
000190 5a 2b a0 3d cd a6 f6 bc 34 20 3b 3d 54 a5 a3 3a
       0.07820769 -0.030108834 0.04568501 0.0012485185
0001a0 81 cb 6b 3d 62 db a7 3d cd 33 71 3d 6a 57 a3 3c
       0.057567123 0.08196141 0.05888729 0.019939143
0001b0 e1 0c 72 3d a5 05 6b 3d 6a ed 01 3d 83 cc e6 3d
       0.059094314 0.05737843 0.031720556 0.11269476
0001c0 12 45 f0 3d 30 28 89 3c 01 40 7b bc 3d da 9d bd
       0.11731924 0.016742796 -0.015335084 -0.07707641
0001d0 4a 34 54 bd d0 4f a0 bb 62 6d 92 3d d4 6b 1e 3d
       -0.05180768 -0.004892327 0.07149769 0.03867705
0001e0 8c 23 2e 3d 52 56 12 3c c2 be 1d bd 88 01 14 3c
       0.04251437 0.008931713 -0.038512 0.009033568
0001f0 93 d2 cd 3c 16 25 8a bc 17 50 40 3d e0 f3 dd 3c
       0.025124824 -0.016863387 0.04695138 0.027093828

net.6.weight f4 [3, 128]
000000 40 07 6c 3b 3e c8 cb 3b a1 56 91 bd eb 53 4b 3d
       0.0036015064 0.006218939 -0.07096601 0.049640577
000010 a9 93 2f 3d d9 f9 eb 3d a0 5b 3e bd c3 99 9f bd
       0.04286543 0.11522264 -0.0464741 -0.077929996
000020 1d 09 b9 3d b5 3a 91 3d 3f 72 7d 3d 9c 09 d8 bd
       0.09034941 0.070912756 0.06187653 -0.10548708
000030 02 3a a8 bd e7 f9 43 bd a5 53 69 bd 0a 57 9b bd
       -0.08214189 -0.047845747 -0.056964535 -0.07584961
000040 d4 88 1f be 48 31 c2 bd cf f5 1f be 5e 97 24 bd
       -0.1557954 -0.09482056 -0.15621112 -0.040183417
000050 92 37 49 bc 81 d2 85 3d e6 3b 61 3d 9a 04 a3 bd
       -0.012281315 0.06534291 0.054988764 -0.07959862
000060 e7 53 31 bc c1 0b 58 bd a2 ef 9f bc 47 0d a6 3d
       -0.0108232265 -0.052745584 -0.019523446 0.08108001
000070 e0 1d b2 3c b6 9a cb 3d 63 22 43 3d dd ce 4a 3d
       0.021742761 0.09941618 0.047640216 0.049513686
000080 32 23 7a bd 41 c8 6f 3d ae df 14 be 61 5d 24 3e
       -0.06106872 0.058540586 -0.14538452 0.16051246
000090 54 0d 47 bd 01 0c f3 bc c7 cb 06 3e a3 80 03 3d
       -0.048596695 -0.02966881 0.13163672 0.0321051
0000a0 ed f6 27 3d 8b fc ee 3d 7e 9f 4f 3d 9f 93 c2 3c
       0.04100697 0.116692625 0.050689213 0.023752032
0000b0 13 0c 04 3e bd 9a 1e 3e 04 b6 8e bc 08 63 33 be
       0.12895231 0.15488715 -0.017420776 -0.17518246
0000c0 4f 4e db 3d 78 b0 97 bd 77 5c 26 be 45 2d 2f 3d
       0.107082956 -0.074067056 -0.1624621 0.04276778
0000d0 02 3d 6c 3d e3 19 00 3e 74 74 ec 3d bf c5 b4 3d
       0.05767537 0.12509875 0.11545649 0.088267796
0000e0 a1 07 d4 3d 76 03 cb bd 8e c4 34 be c5 08 99 bd
       0.103530176 -0.099127695 -0.17653105 -0.07472376
0000f0 7a 9c 21 bc bc ab 95 3d 4d 51 1e be 37 7a 00 3e
       -0.009863967 0.07308146 -0.15460701 0.12546621
000100 a2 cf e4 3d f1 86 90 3d 92 97 e2 3d 3d 49 25 be
       0.11172415 0.07056988 0.11064066 -0.1614122
000110 f5 f5 0f be 3f 34 3e bd a3 32 9e bd 5b 27 05 3b
       -0.14058669 -0.046436545 -0.07724502 0.0020317647
000120 6e 66 c2 3d d4 6c 12 3d c7 2d f1 3c 21 5d a5 bd
       0.09492193 0.035748318 0.029440774 -0.080744036
000130 df 74 e7 3d d3 5d f4 3c ad bf d7 bd 1b ca 03 be
       0.11301588 0.029829895 -0.10534606 -0.12870066
000140 5d 10 59 bd 9b 31 e6 3c 9b ff 3d bd b9 25 9e 3d
       -0.05299412 0.028099826 -0.046386342 0.07722039
000150 63 6e 3d bd 6a 11 e9 3d 27 a7 37 bc 10 a6 10 be
       -0.04624785 0.113802746 -0.011209286 -0.14125848
000160 05 f0 33 3e 19 f1 2f 3d 24 36 0b bc b0 a2 1a be
       0.17572029 0.042954538 -0.008496795 -0.15101123
000170 24 66 3a bd 0b 21 f6 bd b9 b2 9d bd e6 48 c9 3d
       -0.045507565 -0.12018021 -0.07700104 0.098283574
000180 f6 7f 12 be 28 f1 e2 bc 3e 76 19 be 63 ec 2a 3c
       -0.14306626 -0.027702883 -0.14986512 0.010432336
000190 5f e2 41 3d 8f 76 ab bd 31 df 0e be 8b 48 14 3e
       0.047335025 -0.08372223 -0.13952328 0.14480798
0001a0 87 24 ee bc d7 ec 1c 3b 6c 90 04 3d f5 68 9c 3d
       -0.029070152 0.0023944878 0.032364294 0.076372065
0001b0 9f c1 8a 3c dc 70 84 3c 7e ef 08 be 3a 18 8f bd
       0.016938029 0.016167097 -0.13372609 -0.06987043
0001c0 40 2a d2 bd ec 56 5e bc 52 2c 81 3d 39 b3 35 bd
       -0.10261965 -0.0135705285 0.063072816 -0.044360373
0001d0 fc 8a a2 3d 90 35 02 3e 31 97 1c be 44 88 61 bd
       0.079366654 0.12715745 -0.1529205 -0.055061594
0001e0 bd 34 5b bd e1 3e 65 3c 37 84 c9 3b 97 db 4b bd
       -0.053517092 0.013992042 0.0061497944 -0.049769964
0001f0 56 f1 b3 bd 25 89 8e 3d 72 bf c6 3d e7 8f 00 3c
       -0.087862656 0.06959752 0.09704484 0.007846809
000200 e8 93 b3 bc 16 91 93 bd eb 31 0e bd d3 ac 99 3d
       -0.021921113 -0.07205407 -0.034715574 0.07503667
000210 48 35 19 3d d1 2f 27 bd 9e e7 04 3e e0 d4 4e bd
       0.03740433 -0.040817086 0.1297898 -0.050495982
000220 27 9f 6f bd a4 9c 94 3d 88 1b 48 bd cf 36 d4 3d
       -0.05850139 0.07256439 -0.04885438 0.103620164
000230 4e d8 42 bc 7e d0 09 3e 4f e1 c3 3d f2 92 7e 3d
       -0.011892391 0.1345844 0.095644586 0.062151857
000240 13 92 06 3d 28 e2 e9 3d b4 96 76 3d 82 ff 8c bd
       0.03285415 0.11420089 0.060202315 -0.06884672
000250 35 77 be 3d b1 8c 87 bd d8 5b 2a be 00 39 c3 3d
       0.09300081 -0.06618632 -0.16636598 0.09532356
000260 5b 19 b2 bd 32 91 1d bd c8 9b eb 3d ff 68 d0 3d
       -0.086962424 -0.038468547 0.11504322 0.101762764
000270 a3 31 85 bd 53 be 8e bc 07 89 7b 3d de 9d a1 3d
       -0.06503608 -0.017424738 0.061409976 0.07891439
000280 ad b8 df bb 82 60 10 bd 2e b9 2c 3d 5a 55 70 bd
       -0.006827435 -0.035248287 0.04216879 -0.058675148
000290 e4 23 59 3a 34 14 fb bc 7b 70 f5 bd 0f fa 53 bd
       0.0008283241 -0.030649282 -0.119843446 -0.051752146
0002a0 37 b0 5f 3d e8 8b 91 3d b1 32 19 bd 84 eb 5f bd
       0.05461141 0.07106763 -0.03740186 -0.054667965
0002b0 5f 0d a9 bd 6a 92 5c bd 9e e8 42 bd 6b ba 89 bc
       -0.082545035 -0.05385057 -0.047585122 -0.016812524
0002c0 f7 12 06 be 40 ea ce bd b6 d5 c1 3d 27 49 76 bd
       -0.13093172 -0.101032734 0.0946459 -0.060128357
0002d0 03 68 b1 bd d2 14 22 3d 43 06 81 bd e5 25 01 be
       -0.08662417 0.039570637 -0.063000225 -0.12612112
0002e0 a1 b7 e0 3d 63 f9 93 bd 24 7d cf 3d 59 b7 59 bd
       0.109725244 -0.07225301 0.101312906 -0.05315337
0002f0 59 31 9b bc 07 72 c7 bd 08 3b aa bc 73 11 0d bd
       -0.01894443 -0.09738546 -0.020780101 -0.03444047
000300 5e 46 c7 bd c7 0e da 3d 34 78 10 be a9 3e 2e 3d
       -0.09730218 0.1064735 -0.14108354 0.042540226
000310 db 40 ea 3d 67 a7 cf 3d 04 a0 03 3e d3 93 8e bd
       0.114381514 0.10139351 0.1285401 -0.06961789
000320 f6 7f 9f bd 02 0d 04 bd b2 ea 27 3d cd 14 d4 bc
       -0.077880785 -0.032238968 0.040995307 -0.025888825
000330 5e 63 93 bc ee ec 40 3d d1 40 da 3d db ac bf 3c
       -0.017991718 0.047100954 0.10656894 0.023397854
000340 80 21 c5 bc 4d 83 ad 3c 3d 9a 6a bc 8f 53 b4 3d
       -0.024063826 0.021180773 -0.014319 0.08805
000350 33 70 0a 3e f2 6a ec bc c1 df a9 3d a7 1e 7d 3c
       0.13519363 -0.02885959 0.08294631 0.015449203
000360 5d 5d f3 bd ad c8 33 bb 4f 35 a7 3d c2 ae 62 3d
       -0.11883042 -0.0027432845 0.08164465 0.055342443
000370 84 d5 0f 3c db 59 f5 3d 57 11 4a 3d 11 06 8e bd
       0.008778933 0.11980029 0.049332943 -0.06934751
000380 15 79 98 3d 1d 3f c9 3d d6 78 d2 3d a6 85 09 3e
       0.074449696 0.09826491 0.10276954 0.13429889
000390 6d ce 8f 3d e5 ae ce 3d 74 bd db 3d f7 5e 17 be
       0.070217945 0.10091952 0.10729495 -0.1478232
0003a0 c5 af 4e 3c ea d7 b4 3d 19 d8 8c bd 78 cd 84 3c
       0.012615149 0.08830245 -0.06877155 0.016211256
0003b0 dc ff 7d 3d ef c0 75 3b cc d0 cb 3d 61 7d ff 3d
       0.062011585 0.003749903 0.09951934 0.12475086
0003c0 9b e3 c4 3c f1 27 fb bc 76 47 0a 3a 5c 9c b0 bc
       0.024034312 -0.030658694 0.0005274931 -0.021558933
0003d0 73 21 8a bb 24 87 e8 b9 69 1f df 3c 54 e2 b0 3d
       -0.0042154132 -0.00044351176 0.027236657 0.08636919
0003e0 83 a7 da bc 11 44 8e bd 1e 58 3f bd 68 7e c2 3d
       -0.026691204 -0.069465764 -0.046714894 0.09496766
0003f0 e2 33 95 3d 60 dc f7 3c 88 7c e0 3d 7c 98 8d bd
       0.072852865 0.03025645 0.109612525 -0.0691385

net.6.bias f4 [3]
000000 ab 3d ef bd 12 7d 26 bd 96 22 df bd
       -0.11681684 -0.04064662 -0.108952686
